mlartifacts/677995553367563286/7d43276cead846b7b3f286c3d71bc6ea/artifacts/model/data/model.pth (torch, 245788 bytes, 10 tensors)

weight_ih_l0 f4 [100, 219]
-0.0013328483 -0.00021380183 -0.00049974717 -0.0012078155 -0.00048226057 -0.0010104228 -0.0005666694 -0.0010424225
-0.0012110037 6.954463e-05 0.00020098338 9.1977614e-05 -1.664645e-05 -9.471466e-05 5.176673e-06 -6.257386e-05
-0.0002186484 -0.00012360947 -6.115966e-05 -3.8197675e-05 -1.19159995e-05 -4.215126e-05 -3.4781508e-05 2.939194e-05
0.00011185753 -1.3675828e-05 -0.00032991756 -0.00019609935 3.5662786e-05 -5.913862e-05 -0.00015983032 -0.00022058285
-0.00016007648 9.952804e-05 0.00017118471 0.00012108865 0.0001040332 -8.108956e-05 6.3338746e-05 0.00020624441
-0.00027175428 -0.0002190768 -3.0013844e-05 -0.00018439435 -0.0001211581 -3.9940987e-05 -9.018277e-05 7.5683514e-05
9.378223e-05 6.8943846e-05 -0.00028160165 -0.00023154778 -7.163729e-05 4.8244314e-05 0.0002309794 -0.00024243449
-0.0001685449 -0.00055857474 -0.00064192235 -0.000110944355 0.0002232728 -7.3662464e-05 -0.0004994285 -0.00022285662
-0.00043328508 -0.00033643728 -0.00058772817 -9.280004e-06 -9.249253e-05 -0.00021702284 -0.00050698296 -0.0013331288
-0.0013902745 -0.0013042595 -0.000202375 -0.0006703958 -0.0012049564 -0.00057255523 -0.0010222583 -0.00079336826
-0.001086683 -0.0012589667 1.2615601e-05 3.0462412e-05 0.00011126493 -1.5390255e-05 -0.00015493177 0.00030971545
-4.7616188e-05 -0.00015069044 -0.00017889072 -3.977062e-05 -9.0258145e-05 -8.126172e-05 -3.650728e-05 -0.00011593213
0.00010150255 7.023409e-05 -6.6586176e-06 -0.00030989575 -0.00019537516 7.288481e-05 -3.5849695e-05 -0.00013793883
-0.00019718311 -0.00016055373 6.7579545e-05 -0.00010768308 0.00010341814 9.4187584e-05 -0.0002045984 1.8989322e-05
-7.955459e-06 -0.00028893366 -0.00029236122 -4.99605e-05 -0.00016477621 -2.1211115e-05 3.2811986e-05 -0.00010963556
-5.4244785e-05 -2.2080882e-05 6.7778565e-06 -0.0003013623 -0.00030885945 -0.00010764353 1.1594475e-05 -0.00010014282
-0.00024924948 -0.00017602653 -0.0005660391 -0.00066638587 -0.00011390841 0.00011339053 -6.997241e-05 -0.00048792525
-0.00022491386 -0.0004412452 -0.00032895245 -0.000586203 -4.6357163e-06 -9.676127e-05 -0.0002588942 -0.0005040279
-0.001329129 -0.0013907338 -0.0012974434 -0.00019678594 -0.0006185709 -0.0012065973 -0.0005645851 -0.0010127615
-0.00071768666 -0.0010821782 -0.0012357403 -2.920975e-06 0.00013122139 2.8385484e-05 2.1970485e-05 -6.531064e-05
5.1413554e-05 -5.3293108e-05 -0.0001592928 -0.00012409032 -9.7608034e-05 -9.092081e-05 2.1086766e-05 -2.5945365e-05
-0.00015687128 -5.6261277e-05 -2.0536227e-05 -1.8522178e-05 -0.00031293405 -0.00019880406 4.1031093e-05 0.00014061762
-0.00017736945 -0.000218525 -0.00015990138 5.3720083e-05 -3.1638054e-05 0.00015307465 6.338463e-05 -4.264974e-05
-5.7335004e-05 0.00017310657 -0.0002765018 -0.00031921806 -6.116601e-05 -0.00013038033 -4.1319556e-05 -5.3439544e-06
-9.271226e-05 0.00010436439 7.1220784e-05 6.28243e-05 -0.0002865897 -0.00029014135 -0.00012241805 1.9017705e-05
0.00019288612 -0.00025203725 -0.00015424314 -0.0005585643 -0.000624282 -0.00010628736 -8.748197e-06 -7.575627e-05
-0.00049966143 -0.0002225707 -0.00044096512 -0.00033628172 -0.0005783964 -1.2363398e-06 1.6013953e-05 -0.00019276974
-0.00051129074 -0.001331367 -0.0013905548 0.03638275 0.02910062 0.031667646 0.034854334 0.03329662
0.03764597 0.020985328 0.018886311 0.03540034 -0.0005032592 -0.008454461 9.857703e-05 -0.004842265
-0.0020328949 0.00929383 -0.0112574715 0.0071881926 -0.013067476 -0.00029203898 0.0073591555 0.0007015038
0.02181599 0.006718486 0.013672531 0.017497204 -0.022396997 0.009972864 0.012004003 0.015740383
-0.0109143 0.016538123 0.0045185033 0.01789551 -0.0016264304 -0.01375852 0.011706088 -0.012119607
00000000: f8b2 aeba fe2f 60b9 7701 03ba 904f 9eba
00000010: ebd7 fcb9 2a70 84ba 8a8c 14ba e5a1 88ba
00000020: 8bba 9eba 7dd8 9138 11bf 5239 1be4 c038
00000030: fba3 8bb7 8ca1 c6b8 48b3 ad36 163a 83b8
00000040: fc44 65b9 2a9d 01b9 d842 80b8 7136 20b8
00000050: d4ea 47b7 92cb 30b8 5ce2 11b8 b68e f637
00000060: 0e95 ea38 3c71 65b7 c9f8 acb9 05a0 4db9
00000070: a094 1538 9c0b 78b8 2098 27b9 424c 67b9
00000080: 34da 27b9 b6b9 d038 0c80 3339 f9f0 fd38
00000090: 662c da38 a00e aab8 bbd4 8438 5043 5839
000000a0: 3e7a 8eb9 fbb7 65b9 3dc6 fbb7 fb59 41b9
000000b0: 4216 feb8 4f86 27b8 8220 bdb8 47b8 9e38
000000c0: f4ac c438 f295 9038 efa3 93b9 a2cb 72b9
000000d0: fa3b 96b8 f059 4a38 1033 7239 0336 7eb9
000000e0: 6dbb 30b9 516d 12ba ae46 28ba ccaa e8b8
000000f0: 561e 6a39 3c7b 9ab8 14ec 02ba 9eae 69b9
00000100: 8a2a e3b9 d963 b0b9 c511 1aba 50b1 1bb7
00000110: 8df8 c1b8 a090 63b9 0de7 04ba 61bc aeba
00000120: df39 b6ba b0f3 aaba a034 54b9 80bd 2fba
00000130: a1ef 9dba 8817 16ba 4cfd 85ba 0bfa 4fba
00000140: 086f 8eba ea03 a5ba 98a7 5337 8889 ff37
00000150: e856 e938 521a 81b7 2e75 22b9 4e61 a239
00000160: 7eb7 47b8 a802 1eb9 9d94 3bb9 61cf 26b8
00000170: f948 bdb8 0e6b aab8 651f 19b8 9720 f3b8
00000180: c4dd d438 a44a 9338 176d dfb6 8179 a2b9
00000190: 9fdd 4cb9 bcd9 9838 515d 16b8 aca3 10b9
000001a0: f0c2 4eb9 505a 28b9 7eb9 8d38 ead3 e1b8
000001b0: 31e2 d838 9386 c538 7789 56b9 424b 9f37
000001c0: 7078 05b7 057c 97b9 0f48 99b9 ae8c 51b8
000001d0: c7c7 2cb9 86ee b1b7 9a9f 0938 25ec e5b8
000001e0: e584 63b8 553a b9b7 586d e336 2a00 9eb9
000001f0: 6aee a1b9 aebe e1b8 e485 4237 c403 d2b8
00000200: b3ad 82b9 c393 38b9 3e62 14ba 66b0 2eba
00000210: 1de2 eeb8 14cc ed38 27be 92b8 38d0 ffb9
00000220: dbd6 6bb9 ee56 e7b9 4077 acb9 6bab 19ba
00000230: 808c 9bb6 50ec cab8 31bc 87b9 bd20 04ba
00000240: 2b36 aeba 4849 b6ba fa0e aaba 5358 4eb9
00000250: 9727 22ba b026 9eba aa00 14ba a3be 84ba
00000260: 2323 3cba e0d7 8dba 90f8 a1ba f805 44b6
00000270: 7998 0939 5d1d ee37 424d b837 62f7 88b8
00000280: e2a4 5738 0a87 5fb8 d607 27b9 3e1e 02b9
00000290: eab2 ccb8 bdac beb8 7ce3 b037 3fa5 d9b7
000002a0: d07d 24b9 16fa 6bb8 3645 acb7 1360 9bb7
000002b0: 4c11 a4b9 0f76 50b9 cd18 2c38 c172 1339
000002c0: 40fc 39b9 dc23 65b9 33ab 27b9 8051 6138
000002d0: 1ab3 04b8 aa82 2039 5ded 8438 cfe2 32b8
000002e0: fe7a 70b8 f183 3539 72f7 90b9 b95c a7b9
000002f0: 4046 80b8 b4b6 08b9 894e 2db8 3850 b3b6
00000300: 846e c2b8 35de da38 5e5c 9538 8ac0 8338
00000310: 6b41 96b9 1d1e 98b9 585d 00b9 3688 9f37
00000320: 7941 4a39 de23 84b9 54bc 21b9 9e6c 12ba
00000330: dba6 23ba 98e6 deb8 38c5 12b7 56df 9eb8
00000340: b6fb 02ba de61 69b9 5631 e7b9 f84e b0b9
00000350: 869f 17ba 50f0 a5b5 b455 8637 3c22 4ab9
00000360: 2408 06ba 4381 aeba 4743 b6ba 1406 153d
00000370: 6c64 ee3c efb5 013d 6bc3 0e3d 0962 083d
00000380: a932 1a3d 6ce9 ab3c 77b7 9a3c f2ff 103d
00000390: 27ed 03ba 9484 0abc 24bb ce38 ddab 9ebb
000003a0: 513a 05bb 2645 183c 4271 38bc ee8a eb3b
000003b0: f818 56bc cf1c 99b9 1225 f13b 20e5 373a
000003c0: 72b7 b23c bf26 dc3b c002 603c 4c56 8f3c
000003d0: e879 b7bc 3965 233c 70ac 443c faf1 803c
000003e0: e4d1 32bc f57a 873c f40f 943b 9b99 923c
000003f0: f32d d5ba 6a6b 61bc e4ca 3f3c 5191 46bc

weight_hh_l0 f4 [100, 25]
-1.5443367e-05 -0.00023580645 0.0008515971 -1.7356248e-05 -0.0005258089 2.1191222e-06 1.0722319e-07 1.1846336e-05
-1.2178971e-06 -1.6926473e-05 1.3787518e-05 -7.906521e-07 1.0611867e-06 1.6320111e-05 2.0970742e-06 -0.00012777609
3.1766336e-05 -1.172469e-05 -4.321566e-06 -6.868092e-06 1.3051372e-05 6.200336e-05 -1.0339073e-05 -5.8138784e-07
-8.2832914e-05 0.00088861387 0.0034895844 -0.03173284 0.0018293953 0.0317216 -4.2554842e-05 -5.3519478e-05
0.0035558627 0.001615233 0.0012465195 -0.0041468814 -0.0027201578 -0.00305555 0.003367752 0.00029180406
0.01859346 -0.0050689997 -0.0011201631 -0.0011461622 -0.0018048728 0.004312895 -0.008991512 -0.0037070792
4.449914e-05 0.031236162 -0.0007642522 0.018225646 -0.010140046 -0.0013627838 0.0037269266 -5.7038407e-05
2.22445e-05 -0.0039160205 0.006989799 0.000625135 0.003647471 0.00211384 0.0025772313 -0.0038101145
-0.00043447432 0.013912934 0.005779615 0.0015778961 0.00072141516 0.0019114194 -0.002999243 -0.008416516
0.0028136885 1.423289e-05 0.011642582 -1.0133037e-05 0.0007061532 2.4600338e-05 4.955786e-05 0.000121717065
6.0553006e-08 7.959775e-07 -6.517623e-05 0.00018369108 0.00010531849 6.083368e-05 5.507065e-05 2.38377e-05
-3.254395e-05 2.0110241e-07 4.697733e-05 7.7757664e-05 1.942831e-05 2.8950742e-06 1.5600135e-05 -4.0881107e-05
-0.00076013367 5.536545e-05 1.160764e-06 0.0005674582 -0.0026537518 0.03738128 -0.035437357 -0.001797335
-0.0028947215 0.00012802077 7.939881e-05 -0.0056154844 0.016028114 0.004067643 0.0031488892 0.0035268744
0.0040621385 -0.0029071672 -0.00037055876 -0.008939117 0.00607078 0.0014827749 0.0010000122 0.0016861509
-0.0029396736 -0.02867042 0.0023804568 1.2953098e-05 0.0067623933 3.5087112e-08 -5.729052e-07 5.868872e-07
8.5236294e-08 -1.3108655e-06 2.8856408e-09 3.1101077e-10 1.09813044e-07 -6.322134e-08 9.1721897e-10 -8.340584e-08
1.8512236e-07 -7.905189e-08 3.9125627e-08 2.55177e-09 -2.0077057e-06 -1.0436062e-07 -9.577795e-09 -5.055291e-08
-9.3796956e-08 8.827609e-08 -1.9597391e-07 -7.3872116e-08 3.8571164e-09 1.9140955e-08 -3.2226963e-09 -3.2137294e-07
1.2923863e-06 -3.580689e-08 -7.376767e-07 3.5088166e-09 -4.9831833e-11 7.035347e-08 -7.4965925e-08 -1.7564739e-08
5.563373e-08 -5.337665e-08 -4.336394e-08 8.831129e-08 7.0348216e-09 -2.7668673e-07 -6.865404e-08 -2.5340434e-08
5.6479244e-08 -3.080203e-08 2.1857996e-08 -1.1499994e-07 -2.0351125e-09 -2.4730434e-10 -1.3049319e-07 -5.2645588e-05
-0.00061107957 0.002237284 -3.770646e-05 -0.002379333 1.0737451e-06 2.336279e-06 -1.6974693e-05 -0.00010957269
-3.1846866e-06 5.1501516e-05 -5.4803262e-05 0.00010547086 2.0004698e-05 -7.0312735e-06 -0.0005314307 0.00019506298
-1.1406446e-06 3.2620574e-05 6.162012e-05 -9.564333e-05 -4.2554835e-05 3.2963497e-05 1.7756076e-07 -0.00018687839
0.00017813542 0.0036111656 -0.00029718687 0.00033222727 0.0013868673 5.853345e-06 -1.4690825e-05 -0.00013625882
0.0005086597 0.00035263872 -0.00020596966 0.0007694669 -0.00039134457 -0.00049168925 -8.983323e-06 0.0054404326
0.00027085387 0.00021044887 -0.0002768699 -0.00020005554 0.00041610133 -0.001969225 -0.00027027613 8.567497e-06
-0.0013302311 1.0776071e-06 0.00050822314 -0.00041209502 4.330544e-05 -0.00010521833 5.2054884e-07 2.8429542e-07
6.628675e-06 0.00018042138 7.477457e-05 2.955012e-05 2.5782285e-05 3.2499088e-06 -1.7007727e-05 1.0743211e-06
0.00015589932 1.0621997e-06 1.1137681e-05 2.6822136e-06 3.582689e-06 -5.535181e-06 -0.0005667025 -3.7343725e-06
-4.790205e-08 -0.00024108178 4.5622404e-05 0.0007910174 0.00012285818 4.51385e-05 0.00036165683 9.4297627e-07
00000000: 618c 81b7 d042 77b9 b73d 5f3a 4298 91b7
00000010: 70d6 09ba 3e36 0e36 9242 e633 a0bf 4637
00000020: a076 a3b5 53fd 8db7 f050 6737 333d 54b5
00000030: 196e 8e35 2ce7 8837 76bb 0c36 a2fb 05b9
00000040: d83c 0538 29b5 44b7 f801 91b6 7674 e6b6
00000050: 37f7 5a37 cd07 8238 fb75 2db7 ab10 1cb5
00000060: 95b6 adb8 def1 683a 83b1 643b 4bfa 01bd
00000070: 52c8 ef3a 82ee 013d ea7c 32b8 1a7a 60b8
00000080: 7a09 693b 3ab6 d33a 4162 a33a 90e2 87bb
00000090: ad44 32bb 9f3f 48bb 81b5 5c3b 47fd 9839
000000a0: 5051 983c da19 a6bb 70d2 92ba d23a 96ba
000000b0: 7b91 ecba 2f53 8d3b 2251 13bc 78f2 72bb
000000c0: 96a4 3a38 fbe2 ff3c 1958 48ba f34d 953c
000000d0: 6f22 26bc 709f b2ba 743f 743b 863c 6fb8
000000e0: b399 ba37 f651 80bb af0a e53b 1ae0 233a
000000f0: 690a 6f3b 5a88 0a3b c4e6 283b 1db3 79bb
00000100: 28ca e3b9 13f3 633c ed62 bd3b 68d1 ce3a
00000110: 5a1d 3d3a 9888 fa3a f38e 44bb 6de5 09bc
00000120: dc65 383b ccc9 6e37 87c0 3e3c 1001 2ab7
00000130: 241d 393a d35c ce37 59dc 4f38 5a42 ff38
00000140: 5e09 8233 28ab 5535 39af 88b8 339d 4039
00000150: 6fde dc38 ab27 7f38 a9fb 6638 12f7 c737
00000160: cd7f 08b8 9cee 5734 8609 4538 d411 a338
00000170: faf9 a237 ff48 4236 09dd 8237 c177 2bb8
00000180: b543 47ba 3338 6838 8ccb 9b35 7ac1 143a
00000190: 91ea 2dbb 1d1d 193d c326 11bd 8e94 ebba
000001a0: 5eb5 3dbb 503d 0639 e982 a638 1902 b8bb
000001b0: 644d 833c dd49 853b 985d 4e3b 2223 673b
000001c0: b01b 853b 2c86 3ebb 8e47 c2b9 6075 12bc
000001d0: 65ed c63b ab59 c23a d712 833a d601 dd3a
000001e0: 8aa7 40bb 3bde eabc 7001 1c3b 2251 5937
000001f0: 1197 dd3b b0b2 1633 bfc9 19b5 958a 1d35
00000200: 260b b733 fff0 afb5 bb4c 4631 e0fa aa2f
00000210: 5cd2 eb33 4dc4 87b3 8c1f 7c30 d81c b3b3
00000220: 0cc6 4634 3cc3 a9b3 150b 2833 365b 2f31
00000230: 1fbc 06b6 dc1c e0b3 968b 24b2 831f 59b3
00000240: 6c6d c9b3 4b92 bd33 e66c 52b4 a0a3 9eb3
00000250: 8e87 8431 686b a432 4676 5db1 2989 acb4
00000260: 0e76 ad35 18ca 19b3 c204 46b5 c11f 7131
00000270: a829 5bae 3b15 9733 f4fc a0b3 45e1 96b2
00000280: eff1 6e33 3f40 65b3 283f 3ab3 a5a5 bd33
00000290: f2b6 f131 898b 94b4 f56e 93b3 34ac d9b2
000002a0: 9693 7233 314b 04b3 3ec2 bb32 e3f5 f6b3
000002b0: 14da 0bb1 fef4 87af b21d 0cb4 c5cf 5cb8
000002c0: db30 20ba 669f 123b 0127 1eb8 95ee 1bbb
000002d0: 9a1d 9035 f8c8 1c36 e064 8eb7 64ca e5b8
000002e0: 80b8 55b6 5503 5838 8edc 65b8 3d30 dd38
000002f0: c3cf a737 2eee ebb6 b64f 0bba d289 4c39
00000300: 4018 99b5 13d2 0838 0d3a 8138 1f94 c8b8
00000310: e87c 32b8 4942 0a38 88a7 3e34 c9f4 43b9
00000320: ddc9 3a39 4ea9 6c3b bfcf 9bb9 ca2e ae39
00000330: 8bc7 b53a da67 c436 9d78 76b7 b3e0 0eb9
00000340: 9357 053a 5ee2 b839 8ff9 57b9 0db6 493a
00000350: 612d cdb9 b5e4 00ba 14b7 16b7 a845 b23b
00000360: 6401 8e39 f0ab 5c39 d928 91b9 00c6 51b9
00000370: 2d28 da39 1d0e 01bb d9b3 8db9 1fbd 0f37
00000380: 265b aeba 4ca2 9035 473a 053a 750e d8b9
00000390: dda2 3538 a9a8 dcb8 d8bb 0b35 44a1 9834
000003a0: e26b de36 7f2f 3d39 4bd0 9c38 66e2 f737
000003b0: 0947 d837 0219 5a36 d1ab 8eb7 6431 9035
000003c0: e878 2339 e790 8e35 fadb 3a37 1400 3436
000003d0: 216e 7036 d8ba b9b6 c38e 14ba 089c 7ab6
000003e0: dcbc 4db3 e6ca 7cb9 af5a 3f38 475c 4f3a
000003f0: 7ed3 0039 1853 3d38 c29c bd39 d620 7d35

bias_ih_l0 f4 [100]
-0.0026561227 0.0799269 0.1054123 0.002018628 0.12049909 -7.037457e-06 -4.1873036e-06 -0.0035904474
0.008622145 0.0005400487 -0.0010217666 -0.013913212 -0.0050888974 -0.0040266463 -4.2248837e-05 0.10183649
-0.004075028 -0.0007765517 -0.0012016168 -0.00066254643 -0.0034194721 0.033599272 -0.0009788452 -1.1309805e-06
0.09992936 -0.002141639 0.021676488 0.07008016 0.00019463737 0.036808796 -7.694424e-06 -3.7572818e-06
-0.0035806212 0.00359328 0.00043671302 -0.0010317669 -0.011994209 -0.004192905 -0.0040613418 -4.5048157e-05
0.060264394 -0.0045023602 -0.0008445674 -0.0009789288 -0.00055226876 -0.0028703527 0.044120695 -0.0008925995
-1.005363e-06 0.066634625 0.00092915073 0.056969065 -0.0926049 0.041644342 0.078344844 -4.865998e-05
-0.002027713 -0.00036606516 -0.012776317 -0.0019412122 0.0005100574 0.0013887185 -0.0010219619 -0.00079049816
-0.00048753593 -0.018494794 0.0007501539 0.0008160322 -0.0010664248 -0.00037207693 0.00027789883 -0.003318186
0.00031686184 0.008109675 0.004548769 -0.002735297 0.026545478 0.10303046 0.00479888 0.08070282
-9.912279e-06 -4.3298355e-06 -0.0034537711 0.008666538 0.00060872256 -0.0011278588 -0.013064287 -0.0051062405
-0.003565359 -4.204898e-05 0.06918892 -0.0040119574 -0.00074162206 -0.0012046614 -0.0006421932 -0.0034683372
0.039834607 -0.0009794716 -1.1717564e-06 0.03576226
00000000: 5812 2ebb b7b0 a33d 67e2 d73d f54a 043b
00000010: 3ac8 f63d 4c23 ecb6 aa80 8cb6 b64d 6bbb
00000020: e643 0d3c 0e92 0d3a ccec 85ba 3ef4 63bc
00000030: c4c0 a6bb f5f1 83bb 5834 31b8 a68f d03d
00000040: d087 85bb 8191 4bba 927f 9dba bdae 2dba
00000050: 3919 60bb 649f 093d 984c 80ba 32cc 97b5
00000060: c4a7 cc3d bd5a 0cbb e492 b13c 3086 8f3d
00000070: 9217 4c39 d2c4 163d 4d17 01b7 9c25 7cb6
00000080: dba8 6abb 3c7d 6b3b a1f6 e439 5a3c 87ba
00000090: 5c83 44bc a364 89bb 0115 85bb 17f2 3cb8
000000a0: ccd7 763d 8988 93bb f565 5dba 664f 80ba
000000b0: 21c6 10ba 871c 3cbb e7b7 343d 57fd 69ba
000000c0: 02f0 86b5 bc77 883d 4092 733a 6558 693d
000000d0: a3a7 bdbd 4293 2a3d 4373 a03d 4118 4cb8
000000e0: 61e3 04bb 6fec bfb9 c253 51bc 4670 feba
000000f0: 5fb5 053a a905 b63a 5af3 85ba 6f39 4fba
00000100: f79b ffb9 6582 97bc faa5 443a feea 553a
00000110: 47c7 8bba 5213 c3b9 f3b2 9139 ec75 59bb
00000120: 7a20 a639 71de 043c d70d 953b ab42 33bb
00000130: e775 d93c a201 d33d ec3f 9d3b 8547 a53d
00000140: ea4c 26b7 0149 91b6 aa58 62bb 18fe 0d3c
00000150: ae92 1f3a a9d4 93ba 970b 56bc 4052 a7bb
00000160: cca8 69bb c05d 30b8 ecb2 8d3d bd76 83bb
00000170: 6a69 42ba bbe5 9dba db58 28ba 0b4d 63bb
00000180: 9d29 233d 9d61 80ba 3e45 9db5 737b 123d

bias_hh_l0 f4 [100]
-0.0026657786 0.08321088 0.08296279 0.0018794722 0.11992356 -7.1284053e-06 -4.194684e-06 -0.0037592945
0.008619021 0.00054065196 -0.00102974 -0.013850632 -0.0051030293 -0.0039756456 -4.217731e-05 0.094413586
-0.004281142 -0.00079221994 -0.0012254568 -0.0006620093 -0.0033935844 0.033598274 -0.0009785012 -1.1325574e-06
0.10158412 -0.0021343967 0.037862096 0.10324121 -0.0003580576 0.05814127 -7.389073e-06 -3.7299826e-06
-0.00359205 0.0036050607 0.00044041243 -0.0010328658 -0.0120748 -0.004187924 -0.004229638 -4.4927954e-05
0.061872106 -0.0046807677 -0.00079639547 -0.0009865583 -0.00055208657 -0.0029123095 0.044121098 -0.00089269853
-1.0009005e-06 0.075718574 0.0008169247 0.040643934 -0.060324892 0.006377812 0.09426817 -2.9851146e-05
-0.0019144536 -0.0004785127 0.031147493 -0.0009316829 0.00040006114 0.0014246207 -0.0010198867 -0.00080540666
-1.2132481e-05 0.086371124 0.0006203956 0.0008182975 -0.001015791 0.0019900475 0.00041213506 0.0036347858
0.00050592195 -0.006134667 0.08618486 -0.0027535674 0.030946918 0.023476206 -0.00025836143 0.078046374
-1.000687e-05 -4.3189866e-06 -0.003454523 0.008655603 0.0006102431 -0.0011278708 -0.012918765 -0.005107994
-0.0037863133 -4.201701e-05 0.047099344 -0.0042605586 -0.0007512528 -0.0012163414 -0.0006472973 -0.0034645088
0.039834682 -0.0009793455 -1.1739806e-06 0.038177717
00000000: 58b4 2ebb 776a aa3d 65e8 a93d 9f58 f63a
00000010: 7c9a f53d 8930 efb6 10c0 8cb6 7f5e 76bb
00000020: cb36 0d3c 8aba 0d3a 57f8 86ba c3ed 62bc
00000030: 5037 a7bb 2246 82bb 8be7 30b8 e95b c13d
00000040: d248 8cbb fbac 4fba 829f a0ba b18a 2dba
00000050: e666 5ebb 589e 093d 0d41 80ba 6002 98b5
00000060: 560b d03d 3ce1 0bbb 4915 1b3d 2170 d33d
00000070: adb9 bbb9 8a25 6e3d a7ef f7b6 9d50 7ab6
00000080: 9968 6bbb e242 6c3b 28e7 e639 3a61 87ba
00000090: 62d5 45bc da3a 89bb c698 8abb 0671 3cb8
000000a0: 9b6d 7d3d 2061 99bb 32c5 50ba 674f 81ba
000000b0: e7b9 10ba 72dc 3ebb 53b8 343d fc03 6aba
000000c0: ae56 86b5 5712 9b3d e326 563a 417a 263d
000000d0: 3c17 77bd f7fc d03b ac0f c13d d968 fab7
000000e0: 67ee faba e3e0 fab9 0729 ff3c 2e3c 74ba
000000f0: 4cbf d139 57ba ba3a b8ad 85ba ed21 53ba
00000100: 9c8c 4bb7 58e3 b03d 0ba2 223a 0483 563a
00000110: 4a24 85ba 756b 023b d513 d839 9635 6e3b
00000120: d99f 043a 5105 c9bb b081 b03d 3275 34bb
00000130: 6484 fd3c 2c51 c03c af74 87b9 c7d6 9f3d
00000140: 2ee3 27b7 d0eb 90b6 4765 62bb 3bd0 0d3c
00000150: b9f8 1f3a 10d5 93ba 3aa9 53bc f660 a7bb
00000160: cc23 78bb 6c3b 30b8 3eeb 403d 289c 8bbb
00000170: b9ef 44ba a56d 9fba 63af 29ba d00c 63bb
00000180: b129 233d 625d 80ba ab91 9db5 3d60 1c3d

weight f4 [100, 25]
-8.999985e-36 -7.3780695e-35 4.4710042e-35 -2.6523724e-36 -5.31857e-35 -2.2223932e-37 2.2600868e-37 -8.949325e-36
3.576329e-35 -1.1155706e-35 7.269957e-36 3.8273835e-36 1.3975473e-35 -7.803234e-36 -1.1410474e-36 -1.7186423e-35
-3.1127154e-35 2.1207159e-36 4.299192e-36 5.7513332e-36 -1.175528e-35 9.720483e-35 6.4693164e-36 -1.2760052e-37
-4.963413e-35 6.826534e-36 3.8029293e-20 4.4601958e-11 -1.6117774e-20 1.9151937e-13 1.3787647e-12 -1.2837079e-24
4.280437e-25 3.078678e-35 8.802571e-12 -1.73593e-40 4.28199e-40 8.2601545e-20 4.836195e-36 -8.5072226e-29
1.923605e-16 -4.69186e-40 1.488796e-39 1.43123e-40 -1.74102e-40 -2.9329307e-36 -1.7079082e-35 5.2124e-41
2.66432e-40 5.695767e-23 -0.0008821788 0.0760276 0.16125986 -0.020093177 -0.23683709 0.00018680756
5.6629877e-05 0.001004532 0.05098918 0.0132704135 -0.0008255902 -0.00033466693 -4.931292e-05 0.00034976803
0.0025531831 0.018880628 -0.00042131665 -0.001218955 -0.00010039031 -0.00088474306 0.00060469634 -0.05852103
-0.00063529034 -0.00011068701 0.041974988 -0.00026526343 -0.007752013 -0.0038426353 -0.0003521765 0.013141534
3.835076e-05 -7.659353e-07 -0.002136693 -7.7840436e-05 0.0003666698 0.0022428122 0.0012915925 0.0013314423
-0.0020006292 -0.00022765732 -0.016170103 0.0035016686 0.0007893736 0.00039829925 0.001013453 -0.0018708907
-0.0062900865 0.0017251746 8.5244155e-06 0.019930776 -9.495285e-24 2.2399453e-23 -2.7527213e-23 -1.0380211e-24
-6.139489e-23 -1.3176271e-25 -1.6054032e-25 2.203583e-24 1.8242631e-23 1.862165e-24 1.7197471e-24 -3.2047514e-24
-8.864611e-25 2.6790892e-24 1.9264572e-25 1.9599326e-23 1.1349046e-25 6.654139e-25 4.6199114e-24 1.0155072e-24
7.947675e-27 3.8651748e-23 4.3261566e-24 -6.929648e-26 6.714648e-24 -9.140713e-07 -0.0021271792 0.008781716
1.277539e-07 -0.010761976 -1.9585535e-07 1.2992736e-09 -1.4733856e-06 5.4028243e-07 1.6295168e-07 -3.608542e-07
6.9887614e-07 1.9251061e-07 -1.4115299e-06 -1.2060455e-07 -0.008481319 1.6077834e-08 4.884266e-07 -3.0307902e-08
-1.6064021e-07 -5.179081e-07 -0.00016360426 4.9054665e-07 2.0908077e-08 0.0032009538 -0.000390635 -0.02102876
-0.02785658 -0.0010132039 0.044152796 5.7636018e-05 4.1050873e-05 -0.00362654 -0.0010044358 -0.0006914063
0.0032390575 0.0027010248 0.0014591573 -0.0030700532 -0.00037872657 -0.026409812 0.0051627276 0.001303548
0.00050196104 0.0014563429 -0.0023588098 0.002500896 0.0024831973 1.076594e-05 0.026186537 -0.002449474
-0.11719786 -0.09251543 -0.0033975411 0.063647464 -0.00046679692 3.3399294e-05 -0.0056694294 -0.038038213
-0.017063288 0.006020335 0.0018778204 0.0049607386 -0.00369767 -0.0016454448 -0.07130705 0.0071062907
0.002215357 0.002450771 0.0043450496 -0.0058103018 0.035891976 0.005050843 -1.8286792e-05 0.09760101
-0.003038618 -0.084765844 -0.0076010847 -0.008625485 0.029851036 -0.00036132868 0.00010312651 -0.005874638
-0.017812585 -0.011945227 0.0060569965 0.0039528897 0.0047027636 -0.004663743 -0.00073041033 -0.020702008
0.008318366 0.0023998683 0.0025037488 0.0042290906 -0.005635708 0.07184106 0.0050205286 -6.3566855e-05
0.03305729 -1.0826274e-22 -2.6446398e-09 -4.4986205e-06 -3.249035e-11 3.206206e-09 1.1145817e-11 -3.605589e-18
-3.218035e-33 -7.7200555e-24 -1.2202782e-08 -5.22069e-40 1.6661259e-29 -2.0915496e-19 5.24946e-40 3.935657e-29
1.3303582e-10 -4.1314e-40 -2.7571145e-33 -2.45121e-40 -3.867827e-33 -2.17655e-40 3.4238346e-17 8.3628e-41
-5.8685393e-38 5.1376325e-09 0.0016151905 0.06705731 0.075231545 -0.0054116934 -0.13484815 0.00027352857
00000000: 9468 3f85 8a24 c486 28b8 6d06 8ea3 6184
00000010: 5064 8d86 8d3f 9782 44d0 9902 c354 3e85
00000020: 7826 3e06 7141 6d85 699d 1a05 84cc a204
00000030: db9c 9405 d9f4 2585 a023 c283 e5c1 b685
00000040: 1680 2586 1a69 3404 0ede b604 79a2 f404
00000050: d501 7a85 1735 0107 4f96 0905 4bae 2d82
00000060: 3df3 8386 302f 1105 9896 331f 5729 442e
00000070: 633a 989e b3a1 572a 3c0b c22b e9a4 c697
00000080: 1e79 0417 cbb0 2306 41db 1a2d e8e3 0180
00000090: a5a9 0400 9209 c31f 80b5 cd04 08af d790
000000a0: ccc6 5d25 e61b 0580 2836 1000 f88e 0100
000000b0: 53e5 0180 9381 7984 af9d b585 4d91 0000
000000c0: b4e6 0200 17b7 891a 0442 67ba 5cb4 9b3d
000000d0: 4e21 253e 729a a4bc 6c85 72be c6e1 4339
000000e0: de85 6d38 80aa 833a 08da 503d 266c 593c
000000f0: 6c6c 58ba 3c76 afb9 58d5 4eb8 1261 b739
00000100: 4e53 273b 8cab 9a3c 2ae4 dcb9 58c5 9fba
00000110: a388 d2b8 1aee 67ba 7c84 1e3a bfb3 6fbd
00000120: 9d89 26ba a320 e8b8 f7ed 2b3d 0e13 8bb9
00000130: 9904 febb b9d4 7bbb 54a4 b8b9 974f 573c
00000140: d1da 2038 ac9a 4db5 c307 0cbb 443e a3b8
00000150: 963d c039 25fc 123b a74a a93a ca83 ae3a
00000160: fd1c 03bb 4cb7 6eb9 2a77 84bc 407c 653b
00000170: f7ed 4e3a d2d2 d039 d7d5 843a ad38 f5ba
00000180: 121d cebb 411f e23a 1604 0f37 de45 a33c
00000190: 60aa 3799 5ca2 d819 0a1d 059a 41a0 a097
000001a0: 9971 949a 451d 2396 42bd 4696 757e 2a18
000001b0: 916e b019 fa13 1018 1a0f 0518 a4f4 7798
000001c0: 582c 8997 d448 4f18 de7b 6e16 958d bd19
000001d0: 907e 0c16 85ef 4d17 63b9 b218 6224 9d17
000001e0: 806b 1d14 8ce8 3a1a 2e5c a718 dd91 ab95
000001f0: 54e1 0119 805e 75b5 2568 0bbb 30e1 0f3c
00000200: ba2c 0934 0053 30bc 4f4c 52b4 2092 b230
00000210: 25c1 c5b5 ed07 1135 d1f7 2e34 6cbb c1b4
00000220: 679a 3b35 eab4 4e34 cc73 bdb5 877f 01b4
00000230: 3bf5 0abc 881b 8a32 6c1c 0335 e42b 02b3
00000240: 727c 2cb4 6006 0bb5 2f8d 2bb9 1cae 0335
00000250: 5999 b332 18c7 513b 24ce ccb9 8244 acbc
00000260: 7c33 e4bc 7bcd 84ba 90d9 343d 34be 7138
00000270: 0a2e 2c38 3fab 6dbb 46a7 83ba 7e3f 35ba
00000280: 5e46 543b ad03 313b 3241 bf3a f232 49bb
00000290: d28f c6b9 6459 d8bc 192c a93b d0db aa3a
000002a0: 0996 033a c2e2 be3a 4396 1abb 13e6 233b
000002b0: 23bd 223b 5c9f 3437 2685 d63c 5b87 20bb
000002c0: 6e05 f0bd bb78 bdbd 48a9 5ebb 9a59 823d
000002d0: 6cbc f4b9 3816 0c38 9fc6 b9bb f5cd 1bbd
000002e0: 4fc8 8bbc 3b46 c53b 3221 f63a b18d a23b
000002f0: 9c54 72bb f7ab d7ba 6e09 92bd e3db e83b
00000300: 862f 113b 1d9d 203b eb60 8e3b 5864 bebb
00000310: 7703 133d 8b81 a53b 9666 99b7 0ae3 c73d
00000320: 8d23 47bb b799 adbd 8512 f9bb e851 0dbc
00000330: 298a f43c b770 bdb9 a045 d838 0980 c0bb
00000340: b3eb 91bc eab5 43bc c579 c63b 3e87 813b
00000350: a419 9a3b 50d2 98bb 0279 3fba 4297 a9bc
00000360: c149 083c 1c47 1d3b ef15 243b 2f94 8a3b
00000370: bfab b8bb 6821 933d 3f83 a43b 324f 85b8
00000380: 1567 073d b2e1 029b ffbc 35b1 dbf2 96b6
00000390: e2e4 0eae 2c54 5c31 4c14 442d d305 85a2
000003a0: 05ac 8589 dd53 1599 67a4 51b2 51af 0580
000003b0: 1af7 a80f 35ed 76a0 56b7 0500 c08f 4710
000003c0: 4146 122f ab7f 0480 570d 6589 4cab 0280
000003d0: cba9 a089 bc5e 0280 81e5 1d24 1fe9 0000
000003e0: c0c1 9f81 1887 b031 cdb4 d33a 5855 893d
000003f0: ff12 9a3d 9354 b1bb a215 0abe 6268 8f39

bias f4 [100]
-6.3947943e-35 -8.5346e-06 0.102724776 0.0003050192 -1.2405955e-22 -0.025588192 0.0071006045 0.13546963
0.07510873 -0.0002502684 0.05211452 -6.591852e-14 1.5079658e-20 -4.240125e-09 0.00369768 -7.157011e-14
5.2004936e-05 0.027066585 0.012343304 0.06616824 -1.0167511e-28 0.16414858 -1.396209e-10 -2.94729e-07
-2.730125e-21 -2.1029716e-06 0.0006830463 -5.7700494e-10 0.11121891 -0.0003760762 -2.9686626e-07 0.016547857
-0.0001124364 -4.602691e-07 0.11439943 0.040619656 0.112553544 0.14091353 -1.2147628e-05 0.052978054
-4.1481506e-08 0.014909962 0.12203044 0.12483901 -8.1066966e-16 0.018799864 0.09615304 0.0012057836
0.074097924 -1.375598e-10 0.025662707 -4.5633026e-29 -4.912067e-23 0.060498443 -0.0017918054 -2.3451547e-23
0.0005991622 0.077481635 -1.0901888e-05 -2.6752756e-19 -4.645143e-09 0.17168008 -7.519956e-05 0.007332957
0.07404325 0.03558603 0.017745562 -0.0007232067 0.11894324 -4.8815376e-28 -6.598143e-14 -6.600702e-29
0.00034292907 -0.032958534 -1.010804e-06 -1.8306886e-05 0.13335115 -0.006549854 -2.2203992e-29 -2.9371912e-22
-0.00051585614 -6.14357e-08 -4.5124626e-08 -4.6161263e-31 0.11960814 0.12594877 -8.797824e-06 3.1667525e-05
-3.4756083e-15 0.00010847149 -2.5340374e-24 0.062322803 0.105364434 -1.0972477e-28 4.735128e-05 0.08278579
-1.4480313e-06 -4.3006066e-19 0.100803964 -1.1492532e-08
00000000: b700 aa86 d42f 0fb7 5e61 d23d fcea 9f39
00000010: 92fa 159b 549e d1bc 30ac e83b 8db8 0a3e
00000020: 9bd2 993d 7536 83b9 0976 553d 716f 94a9
00000030: 606c 8e1e 89b0 91b1 c754 723b 5c29 a1a9
00000040: e01f 5a38 beba dd3c 923b 4a3c 3783 873d
00000050: 76e3 0091 9116 283e ca83 19af 3f3b 9eb4
00000060: 4c48 4e9d c720 0db6 760e 333a 1d9b 1eb0
00000070: bdc6 e33d 182c c5b9 fd60 9fb4 5f8f 873c
00000080: d5cb ebb8 e71a f7b4 404a ea3d cc60 263d
00000090: 7982 e63d a34b 103e aacd 4bb7 84ff 583d
000000a0: 6629 32b3 ea48 743c 18eb f93d 98ab ff3d
000000b0: dda8 69a6 2c02 9a3c e3eb c43d 620b 9e3a
000000c0: a7c0 973d a43f 17af 993a d23c 0e63 6790
000000d0: 7288 6d9a 37cd 773d 03db eaba 38cf e299
000000e0: 1811 1d3a b1ae 9e3d 41e7 36b7 9feb 9da0
000000f0: 1c9b 9fb1 e7cc 2f3e 75b4 9db8 4d49 f03b
00000100: fda3 973d a8c2 113d 245f 913c 9495 3dba
00000110: 8398 f33d bdb3 1a92 b493 94a9 0159 a790
00000120: 29cb b339 87ff 06bd f6aa 87b5 bd91 99b7
00000130: 348d 083e 28a0 d6bb dc2c e18f d58a b19b
00000140: 853a 07ba a2ee 83b3 0dcf 41b3 47cd 158d
00000150: 1df5 f43d b7f8 003e 5e9a 13b7 bfd2 0438
00000160: a871 7aa7 307b e338 c80f 4498 3246 7f3d
00000170: 4fc9 d73d b917 0b91 0d9b 4638 998b a93d
00000180: fa59 c2b5 eedc fda0 4f72 ce3d b170 45b2

weight f4 [300, 100]
3.78174e-40 6.25956e-40 1.8207936e-21 -4.633932e-21 2.61939e-40 -6.003887e-32 4.9951576e-20 -5.5442007e-20
-2.4381935e-20 6.63813e-40 -3.7766377e-21 7.69012e-33 -4.27491e-40 7.2478e-41 -8.9627394e-21 -3.6812e-41
1.1477763e-24 -2.2169884e-21 3.393935e-20 -4.442778e-21 -4.36866e-40 -3.3592684e-20 -2.70089e-40 -4.719997e-31
-3.0241e-41 -9.1359e-41 2.3460077e-22 1.19015e-40 -5.2998376e-20 -4.06011e-40 -1.75373e-40 -7.68186e-21
1.7126664e-21 1.1027306e-28 -2.5015572e-20 -4.7203824e-20 -2.478038e-20 -6.0651054e-20 -2.63154e-40 -5.4501464e-20
-3.58116e-40 1.7934067e-22 -4.006222e-20 -6.678333e-20 4.5502322e-37 -3.9510686e-21 -3.316121e-20 2.6195975e-22
-8.6024e-21 -1.17849e-40 -1.3703879e-20 -6.50927e-40 -1.37236e-40 -1.4725873e-20 1.7731031e-37 1.31285e-40
-9.563569e-22 -3.916723e-20 1.70642e-40 -3.53983e-40 2.53515e-40 -6.414404e-20 -2.9244557e-24 -3.156192e-21
-1.6565762e-20 -2.845133e-20 -3.1903433e-22 -4.1969513e-21 -5.756521e-21 -1.71662e-40 1.74169e-40 2.53025e-40
1.9702748e-23 -1.5031927e-28 -1.7412185e-26 8.808751e-26 -5.844733e-20 9.34331e-33 -1.05575e-40 -2e-41
-3.00377e-40 3.3911e-40 2.4368877e-31 -2.61813e-39 -3.994233e-20 -2.8949247e-20 -1.29969e-40 -1.3263499e-24
1.7759294e-36 -8.701725e-22 -1.7825e-40 3.198491e-20 -2.664163e-20 -2.50311e-40 2.9144316e-24 8.2077823e-20
-1.6497442e-26 -1.0178526e-37 2.1707158e-21 4.563193e-39 -3.83533e-40 -6.82991e-40 1.602753e-07 -4.063047e-09
7.887339e-32 5.0994424e-15 4.2039453e-08 -1.6852229e-07 -1.8509157e-07 3.51505e-40 -3.4010742e-07 -7.6700995e-26
4.3721655e-29 2.5264e-41 -9.155607e-08 2.126e-40 -4.2313042e-10 2.9495732e-07 -9.855422e-07 4.8654677e-08
3.979763e-34 5.6714015e-07 -1.3952684e-31 1.1394021e-14 -5.1517205e-26 -5.72718e-40 4.6422883e-08 3.19745e-40
-2.7869126e-07 -2.961286e-26 -4.59018e-40 6.3512218e-09 2.0441988e-08 9.543796e-13 1.9043568e-07 -1.4377193e-07
4.4432826e-07 -3.0694883e-07 -2.6875247e-31 1.1717405e-06 6.00917e-40 -2.0303736e-07 -3.1239426e-07 1.0030865e-06
1.0323815e-25 -8.993781e-08 -4.6030628e-08 1.0817244e-08 -2.5035268e-07 3.79002e-40 -3.5679025e-07 -8.855133e-34
-1.0122359e-28 -2.5022746e-07 -5.2426207e-18 -2.679867e-32 1.5696942e-09 -2.4232668e-07 -3.82808e-40 -1.6665373e-29
-1.31253e-40 -1.5197614e-07 7.005379e-11 3.1196983e-09 1.3614816e-08 -9.0232714e-07 6.7091e-08 6.069163e-08
1.7325584e-07 1.565452e-39 5.58555e-40 -1.1518629e-37 5.790335e-09 -3.21697e-14 1.3314121e-15 4.0927955e-12
2.9921927e-07 -2.8837664e-15 -2.661338e-37 1.73011e-40 2.769344e-31 -3.74228e-40 -9.1734795e-15 -1.57589e-40
1.7595818e-06 5.72538e-07 3.29266e-40 5.2223736e-10 1.8841992e-20 -1.2441782e-09 -1.1637498e-35 -8.13234e-07
4.6791587e-07 -4.5567467e-36 -1.1905181e-09 -1.2834132e-08 8.845184e-12 -4.4891218e-26 -7.8678266e-07 -1.9209937e-23
-5.67184e-40 6.4236e-41 -4.7603235e-15 -3.1752241e-15 -3.5958023e-34 -1.8212052e-30 1.2898753e-13 -2.0451583e-12
-3.7528878e-13 -4.40982e-40 -1.0146309e-13 -2.0709857e-26 -1.355117e-39 -1.45166e-40 -4.8679732e-14 5.36177e-40
7.25932e-16 1.7034841e-13 -1.001886e-13 2.192738e-14 -1.8217e-41 1.3206451e-11 -7.490841e-30 3.0163126e-29
7.472561e-37 3.35593e-40 4.4990582e-14 2.57511e-40 9.493205e-13 1.1121789e-20 3.41491e-40 -6.529316e-14
1.2238912e-14 7.2257774e-29 -6.6252483e-13 6.173018e-14 -3.9275134e-13 -4.9436526e-09 -5.454205e-29 -3.0798194e-15
-1.7564e-40 -7.155997e-15 1.3103163e-13 4.498113e-13 -1.67849e-40 9.28714e-16 3.6430543e-13 -8.486335e-15
9.878645e-14 -3.98902e-40 1.4276376e-13 4.72973e-40 -3.549346e-39 -7.622635e-14 9.3221005e-17 -6.3696e-41
00000000: 321e 0400 e9d0 0600 4593 091d a410 af9d
00000010: 2eda 0200 acde 9b8b c0e3 6b1f a3e8 829f
00000020: e747 e69e 713a 0700 66ad 8e9d b1b7 1f0a
00000030: aca7 0480 0aca 0000 264d 299e 9e66 0080
00000040: 1b9c b117 cb82 279d 2846 201f ead7 a79d
00000050: cec1 0480 10a3 1e9f e6f0 0280 332c 198d
00000060: 4d54 0080 acfe 0080 b6ce 8d1b c44b 0100
00000070: 1b47 7a9f cb6b 0480 dee8 0180 321b 119e
00000080: c967 011d a7c9 0b11 f143 ec9e ece9 5e9f
00000090: 480b ea9e 5035 8f9f 91dd 0280 1db0 809f
000000a0: 48e6 0380 40cf 581b 4130 3d9f 0cb0 9d9f
000000b0: 1dd6 1a03 6444 959d 7199 1c9f 4f58 9e1b
000000c0: a77e 229e 8448 0180 f26d 819e 8516 0780
000000d0: 8f7e 0180 fa14 8b9e a057 7102 f86d 0100
000000e0: 4485 909c 47f6 389f aedb 0100 c3da 0380
000000f0: b2c2 0200 b174 979f d044 6298 a279 6e9d
00000100: 8e75 9c9e 8c5b 069f 2cd8 c09b 6c8e 9e9d
00000110: a879 d99d 86de 0180 83e5 0100 55c1 0200
00000120: a48d be19 648d 3e91 2271 ac94 1818 da15
00000130: 3e01 8a9f 8f0d 420a 4d26 0180 c037 0080
00000140: 5445 0380 4db1 0300 be29 9e0c 4882 1c80
00000150: 509f 3c9f 7eb5 089f 4d6a 0180 223e cd97
00000160: 5114 1704 2b7f 839c e3f0 0180 620b 171f
00000170: 829f fb9e c4b9 0280 447e 6118 00cd c11f
00000180: fc61 a394 fd8a 0a82 c003 241d 53b0 3100
00000190: 222d 0480 e76f 0780 2418 2c34 f09a 8bb1
000001a0: 5cc4 cc0b 0eba b727 de8e 3433 0ef3 34b4
000001b0: 95bd 46b4 dad3 0300 0298 b6b4 08e7 bd95
000001c0: f4b1 5d10 6d46 0000 7b9d c4b3 a450 0200
000001d0: 509e e8af a05a 9e34 f946 84b5 62f8 5033
000001e0: 1440 0408 933d 1835 bf1d 358c a641 4d28
000001f0: d119 7f95 813c 0680 8062 4733 527b 0300
00000200: 099f 95b4 c2a2 1295 8eff 0480 f039 da31
00000210: 6898 af32 2651 862b 907a 4c34 ba5f 1ab4
00000220: 038c ee34 baca a4b4 2a6e ae8c b244 9d35
00000230: 1d8b 0600 7c02 5ab4 24b7 a7b4 caa1 8635
00000240: f49a ff15 d523 c1b3 36b3 45b3 bed6 3932
00000250: 3668 86b4 8120 0400 e18c bfb4 9221 9388
00000260: ef50 0091 0057 86b4 276b c1a2 8b25 0b8b
00000270: b4bc d730 2019 82b4 1d2b 0480 c801 a98f
00000280: e16d 0180 e22e 23b4 c70c 9a2e 5062 5631
00000290: 98e6 6932 7337 72b5 ab13 9033 9455 8233
000002a0: 3408 3a34 d80b 1100 0615 0600 90c8 1c82
000002b0: 53f4 c631 24e1 10a9 70e0 bf26 a000 902c
000002c0: 62a4 a034 1acc 4fa7 0c1f b582 49e2 0100
000002d0: 9fbd b30c 3213 0480 3541 25a8 4bb7 0180
000002e0: c52a ec35 83b0 1935 dc95 0300 308d 0f30
000002f0: 24f5 b11e a1ff aab0 9180 7785 044d 5ab5
00000300: de35 fb34 94d2 c184 a29f a3b0 1c7d 5cb2
00000310: 2b9b 1b2d 614a 5e95 4b33 53b5 80c9 b999
00000320: 142d 0680 10b3 0000 3c82 aba7 8ccc 64a7
00000330: 68fb ee87 f4c0 138e 203a 112a 4cea 0fac
00000340: d044 d3aa 47cd 0480 7d79 e4a9 ba19 cd94
00000350: 84c1 0e80 aa94 0180 e93b 5ba9 a5d6 0500
00000360: 543c 5126 96cb 3f2a cc9a e1a9 1981 c528
00000370: c832 0080 9154 682d acee 178f faf1 1810
00000380: 3047 7e03 7fa7 0300 9c9e 4a29 d6cd 0200
00000390: e09a 852b ac15 521e f0b7 0300 f206 93a9
000003a0: 057a 5c28 fa31 b710 f27b 3aab 0701 8b29
000003b0: 6f19 ddaa d4dc a9b1 d047 8a90 a4ec 5da7
000003c0: 9de9 0180 36e9 00a8 4c87 132a a438 fd2a
000003d0: e5d3 0180 80d7 8526 f215 cd2a 50e0 18a8
000003e0: 8372 de29 fa57 0480 dabc 202a 7526 0500
000003f0: 22a6 2680 80a5 aba9 f8f3 d624 8fb1 0080

bias f4 [300]
-2.4119493e-19 -1.2034891e-06 -0.002640912 0.045732975 0.007172981 -1.2481061e-06 0.052745283 -8.151957e-12
-3.232801e-07 -1.893393e-13 -1.6354726e-33 0.045578532 -1.6834441e-12 -0.01600998 3.6581499e-28 -1.9526939e-05
-3.7924154e-23 -7.273095e-18 -3.468712e-29 0.0003238763 0.026582135 -9.533402e-30 -1.3987308e-09 -5.9071413e-06
0.016930595 0.0026771347 0.01846812 0.0018972459 -0.0052672187 0.038781945 0.00561387 0.0017153792
-3.879663e-31 0.035602916 -0.003495412 -4.9724596e-13 -1.0312922e-11 0.005321725 0.02223913 1.0017181e-06
0.029429035 -2.8646677e-22 0.052244123 -0.012109865 0.048536673 -2.7643887e-09 0.0036355956 0.011092192
0.011962064 -1.419222e-16 -0.0047790166 -1.4126639e-29 -0.01245579 0.022195315 0.0067839236 -1.9831314e-22
-1.1242013e-09 0.034165043 0.021041721 -2.0237429e-18 -1.9759288e-11 -1.4668225e-06 0.017872 0.06037627
0.01030397 -4.158121e-18 0.0060017724 1.6605523e-34 -1.7766411e-12 3.805044e-18 0.02826419 -1.1654856e-22
-2.4831908e-28 -2.870718e-09 -2.45438e-27 -3.696695e-23 0.000532688 0.01757678 -1.2958102e-20 0.04816528
0.00585568 0.025870096 0.009226988 -8.3762553e-16 -2.910187e-06 0.0247836 0.022610739 -2.9511437e-05
0.028709201 0.00414267 -2.2872983e-22 -2.5188319e-08 -4.5042307e-23 3.7420734e-05 0.027469223 -1.45939e-28
0.007492542 -9.318965e-20 -8.870633e-27 -6.9762325e-14 0.006603079 -1.2668376e-19 -2.9514318e-05 -1.2294103e-15
0.00089664693 0.02893833 -7.4526135e-10 -2.614765e-24 0.04209936 0.0024688232 -1.08528e-30 -7.547621e-24
-2.8764535e-16 -6.10714e-40 -6.446064e-25 -6.482099e-16 0.02940224 0.015077411 -2.4432911e-09 0.029202633
-1.6273564e-17 0.02030005 -3.2813166e-10 0.031096134 -2.5391225e-07 1.02791855e-08 -6.132566e-26 3.9298724e-05
-7.3924217e-10 -3.905056e-23 -1.1621075e-09 -1.2001486e-11 0.03185176 -7.717049e-19 -0.0008098101 -1.887732e-12
-0.009088307 -5.1627857e-15 -2.584313e-20 0.033119075 0.048620183 -1.1923076e-09 -1.8656849e-17 -0.0038143173
0.0019234703 0.000671006 -1.1498142e-09 -5.1208224e-27 -0.010074423 -2.8906825e-06 -8.8384484e-05 -5.055676e-30
-4.95219e-10 0.047819015 0.0020577011 -5.607836e-09 -6.1902715e-06 -4.5240827e-13 -0.00010006744 7.955644e-09
2.043116e-11 0.025463203 -1.6211816e-20 -3.7171165e-19 0.037359465 -8.4169575e-22 -1.8968721e-07 -1.0188405e-06
-8.364403e-08 -1.4419135e-09 -6.464744e-31 5.768913e-17 -3.5508273e-15 0.032687787 -1.4796608e-21 -9.0733754e-15
-2.128588e-11 -1.4161282e-12 -2.2209062e-05 -1.295542e-05 -3.1661154e-28 -4.693083e-24 -8.164804e-17 -1.9429722e-15
0.032494374 0.05039871 -0.00010438774 0.010210972 0.0078487145 -3.5950984e-15 -2.449179e-08 -3.44736e-40
-9.977672e-13 0.013274493 1.5939631e-29 -1.6416612e-24 0.024055818 -7.4454127e-34 -2.6432767e-18 -3.183927e-21
0.005350822 0.03073741 -4.3161257e-09 -1.574639e-08 0.031889606 0.008388653 0.07232428 0.000944352
0.074833654 0.030320536 0.050393984 2.6534582e-28 2.7409564e-30 0.05802411 -7.33755e-11 0.06665915
-2.4875113e-27 0.014521369 -8.488386e-18 0.0008870351 0.034877032 0.062585354 -4.0064247e-21 -3.800602e-13
-0.00010570576 -3.6333252e-06 0.00022014354 0.045635838 -3.4390733e-21 -1.22769925e-05 -1.7533907e-07 -3.2438727e-08
-1.08739223e-13 -2.8712683e-17 -2.683984e-22 -0.00025836745 0.0029006558 -1.409497e-34 -4.2322563e-06 -7.893764e-07
-1.4794879e-21 -3.1620062e-12 -0.0004714603 0.005360948 0.022887852 0.052631494 0.0023932024 6.3946054e-06
0.001207956 -0.0005472915 0.008347581 0.0021378712 0.010980799 -2.6320355e-13 -2.5665957e-17 -8.700933e-13
00000000: 5960 8ea0 9287 a1b5 2713 2dbb 8052 3b3d
00000010: 530b eb3b 9984 a7b5 700b 583d 2769 0fad
00000020: 478f adb4 562d 55aa a8de 0789 8eb0 3a3d
00000030: 77ec ecab 5d27 83bc e0dc e711 c8cd a3b7
00000040: d463 379a 382a 06a3 75e2 2f90 f1cd a939
00000050: c7c2 d93c 415c 418f 773d c0b0 f535 c6b6
00000060: 08b2 8a3c de72 2f3b 744a 973c 02ad f83a
00000070: a298 acbb d1d9 1e3d 8ef4 b73b 93d6 e03a
00000080: f5cd fb8c 5dd4 113d 4813 65bb 59f6 0bab
00000090: 466d 35ad dd61 ae3b d62e b63c c672 8635
000000a0: 2915 f13c 9628 ad9b effd 553d 7568 46bc
000000b0: 64ce 463d a4f7 3db1 2c43 6e3b 06bc 353c
000000c0: 88fc 433c 0aa0 23a5 4c99 9cbb da42 8f8f
000000d0: 5f13 4cbc f3d2 b53c ad4b de3b f2be 6f9b
000000e0: 5182 9ab0 a5f0 0b3d b05f ac3c 6c53 15a2
000000f0: f6cd adad a3df c4b5 4d68 923c 1c4d 773d
00000100: fcd1 283c 5868 99a2 84aa c43b abb9 5c07
00000110: 3e0a faab a061 8c22 4d8a e73c 08e6 0c9b
00000120: 1364 9d91 3546 45b1 be74 4293 dec2 329a
00000130: 16a4 0b3a 2efd 8f3c 89c5 749e f548 453d
00000140: 01e1 bf3b 86ed d33c cb2c 173c db6d 71a6
00000150: a24c 43b6 fa06 cb3c 283a b93c 548f f7b7
00000160: 8f2f eb3c 3cbf 873b 3a42 8a9b b35d d8b2
00000170: adcf 599a 35f4 1c38 2307 e13c eaff 3891
00000180: ff83 f53b b009 dc9f 74b3 2f94 3e17 9da9
00000190: a45e d83b d18f 15a0 8495 f7b7 3c2d b1a6
000001a0: f50c 6b3a 1410 ed3c 1bdb 4cb0 c24e 4a98
000001b0: 6170 2c3d fbcb 213b c418 b08d 02fe 1199
000001c0: f6d0 a5a5 6ca6 0680 fb7e 4797 73d5 3aa6
000001d0: f7dc f03c 3f07 773c d5e6 27b1 5c3a ef3c
000001e0: de18 96a3 4a4c a63c 6d64 b4af 52bd fe3c
000001f0: 6f51 88b4 5698 3032 c1d5 9795 afd4 2438
00000200: 8b33 4bb0 40d6 3c9a 06b8 9fb0 e321 53ad
00000210: fe76 023d 60c4 63a1 7049 54ba 5bd6 04ac
00000220: 1fe7 14bc 4b02 baa7 db14 f49e dea7 073d
00000230: f525 473d 98de a3b0 3d14 aca3 a0f9 79bb
00000240: f41c fc3a 73e6 2f3a 7e07 9eb0 4fdb ca93
00000250: 310f 25bc 8cfd 41b6 0f5b b9b8 2415 cd8e
00000260: f01f 08b0 dfdd 433d 7fda 063b 0caf c0b1
00000270: 07b6 cfb6 e7ae feaa 4cdb d1b8 4bad 0832
00000280: e2b6 b32d 3598 d03c c41d 999e 7a6b dba0
00000290: 3d06 193d 0e63 7e9c d3ac 4bb4 18bf 88b5
000002a0: cb9f b3b3 d22c c6b0 feca 518d a705 8524
000002b0: 34dd 7fa7 a1e3 053d 9b99 df9c 8f73 23a8
000002c0: 8a3b bbad 654d c7ab 994d bab7 1b5b 59b7
000002d0: 29ad c891 0b8e b598 7f44 bca4 8301 0ca7
000002e0: d218 053d e16e 4e3d beea dab8 ec4b 273c
000002f0: e597 003c ee86 81a7 0462 d2b2 fcc0 0380
00000300: 5a6c 8cab 427d 593c a6a5 a10f e608 fe97
00000310: b510 c53c 916a 7788 160a 43a2 1b92 709d
00000320: f355 af3b 05cd fb3c 0b4d 94b1 ae42 87b2
00000330: ad9e 023d 9070 093c c11e 943d 648e 773a
00000340: 6342 993d c662 f83c ec69 4e3d d22e a811
00000350: 705f 5e0e b0aa 6d3d bc5a a1ae 9884 883d
00000360: b914 4593 09eb 6d3c 4595 1ca3 eb87 683a
00000370: 38db 0e3d c02c 803d c35b 979d 72f4 d5aa
00000380: 59ae ddb8 0dd4 73b6 55d6 6639 a5ec 3a3d
00000390: adec 819d 48f9 4db7 d644 3cb4 c252 0bb3
000003a0: e5db f4a9 f469 04a4 a43c a29b 7e75 87b9
000003b0: ee18 3e3b b35a 3b87 ce02 8eb6 88e5 53b5
000003c0: ea92 df9c a481 5eac 552e f7b9 e4aa af3b
000003d0: 4e7f bb3c 1f94 573d 46d7 1c3b 3e91 d636
000003e0: 4754 9e3a 1c78 0fba 4bc4 083c 871b 0c3b
000003f0: cfe8 333c a12b 94aa 07ba eca3 d4e8 74ab

weight f4 [9, 300]
3.316398e-20 -8.9478505e-09 2.8019295e-12 0.041535694 0.030392645 2.967899e-17 0.050013084 1.4801466e-13
2.9884104e-09 -6.8355e-40 5.481469e-34 0.03157308 2.34888e-40 -0.009274048 -6.6499766e-26 7.691101e-07
-2.076061e-24 -2.24332e-40 9.240665e-31 0.0020594888 -0.09757109 3.545111e-30 3.87128e-40 4.8147062e-06
-0.016031293 -0.012031172 -0.07285677 -0.009895368 -4.0296873e-05 0.036158446 -0.0028973762 -0.006940241
-7.3946794e-32 0.053900603 0.00016165231 -5.1378995e-32 -9.0631814e-14 0.03260887 -0.029939871 -2.7586017e-07
-0.08988665 -4.6901277e-23 0.09850222 0.038895242 0.056605246 3.7854346e-17 -0.012594776 0.016321933
-0.045603033 -2.10625e-40 0.0004003882 -1.571901e-29 -0.0027582343 -0.083009906 0.018206142 -2.759299e-23
-2.7085577e-24 0.03475202 -0.028149055 2.0219505e-19 -1.2372115e-33 -5.1557266e-13 0.04737646 0.053152468
0.011531636 4.39992e-40 -0.02857415 -4.5044673e-34 -9.1526735e-14 2.1625347e-17 0.031119466 -1.0712211e-22
-3.99632e-29 5.27607e-40 1.2885593e-28 -2.48574e-40 -0.0028669566 0.01544502 1.04042e-40 0.049459673
-0.008328102 0.0065121753 -0.03949813 -9.490165e-17 -4.9686247e-07 0.0066607622 0.043427423 8.1100426e-13
0.025483865 -0.016228542 4.3266e-40 4.939542e-08 5.8398e-41 2.2249611e-05 0.04502057 -4.7682e-41
-0.02798229 2.19689e-40 -1.2889224e-26 -1.70569e-40 0.054092787 6.590994e-38 -4.1578416e-05 -1.1665782e-16
-0.0044336114 0.031665873 5.0125174e-29 6.1936236e-25 0.059085086 -0.0068451776 1.1595648e-31 -7.9017056e-25
-2.04985e-40 -2.68472e-40 3.64441e-40 -1.03179e-40 0.0023171837 0.048025154 -1.4584282e-24 0.045522522
-6.50886e-40 0.021108199 -1.22263e-40 0.037710812 -3.3475537e-19 -1.9376464e-10 -9.937749e-27 9.1953116e-05
9.829953e-20 -6.8813686e-24 6.411864e-18 -1.3485335e-12 -0.015270026 -2.0724899e-19 -0.00012150066 -1.1553909e-31
2.9477107e-05 5.40636e-40 -2.7830023e-22 0.069563456 0.03824372 1.9985528e-36 3.619097e-18 2.889956e-07
-0.0054467865 0.002622953 3.76305e-40 2.4072609e-27 -0.0015806139 -6.9893524e-08 0.00022982087 8.0868136e-30
1.3823453e-30 0.027014934 0.003351751 2.1385958e-15 -2.2808644e-08 1.535491e-36 -8.629031e-06 7.8786194e-10
3.719591e-11 0.02688832 -3.2142494e-21 -3.0176643e-18 0.03235006 -1.9241709e-23 -1.1158404e-16 5.4315187e-15
3.1482813e-08 -4.9609413e-30 -7.1030716e-32 7.1560557e-16 1.0164669e-38 0.0695978 -7.9271963e-22 -5.1365e-40
2.5831063e-31 1.2718893e-12 -4.04737e-05 -4.0332077e-10 1.18968665e-29 -1.6547454e-24 -2.1475e-40 2.37734e-40
0.060094524 0.08680199 -5.9607934e-05 -0.00035977885 0.00213236 -3.2635e-41 -3.9444216e-33 -1.5084e-40
1.3911566e-28 -0.050863016 7.050479e-30 -1.65804e-40 0.02387711 2.9266733e-34 -3.80608e-40 1.93599e-40
0.0497706 0.04748183 2.939896e-19 2.6929519e-09 0.02639421 0.0068402905 0.055133224 0.0017873785
0.026952157 0.015667977 0.016752245 5.9800925e-29 1.6874366e-29 0.06166013 6.461622e-33 0.043713525
-2.97571e-40 -0.0012077702 4.91812e-40 -0.004722435 0.039868753 0.070045345 -1.4569149e-21 3.7463278e-13
-4.23912e-05 1.1209797e-06 -0.0011206326 0.049020983 -2.8918e-40 6.2474818e-18 -7.398503e-19 -2.9930115e-25
2.4552066e-38 8.9151045e-18 -1.0249602e-21 4.7391033e-05 -0.0072162845 -5.0966014e-35 3.0963715e-33 -1.9528682e-18
-3.08176e-40 3.70625e-40 -0.0006749731 0.00342623 0.030371334 0.05538744 -0.008094653 5.6811527e-06
0.014585842 -8.5890267e-10 0.03899066 0.04853413 -0.042790856 -1.4662619e-30 2.0221881e-17 6.7001e-40
00000000: cb9c 1c1f 10b9 19b2 132b 452c 5521 2a3d
00000010: fff9 f83c c4de 0824 85da 4c3d 52a6 262a
00000020: ac5c 4d31 7671 0780 2e27 3608 c652 013d
00000030: c68e 0200 2df2 17bc 3ca5 a495 d874 4e35
00000040: a0a0 2098 5971 0280 38f0 950d 7df8 063b
00000050: 5ad3 c7bd 8ace 8f0e 2837 0400 038e a136
00000060: 0f54 83bc 651e 45bc ee35 95bd 2e20 22bc
00000070: 7004 29b8 e11a 143d e8e1 3dbb f66a e3bb
00000080: 13fa bf8b e1c6 5c3d 3681 2939 3363 858b
00000090: af15 cca9 e190 053d 7644 f5bc ef19 94b4
000000a0: 7e16 b8bd f8cc 629a 88bb c93d 9e50 1f3d
000000b0: e7da 673d 8692 2e24 525a 4ebc 93b5 853c
000000c0: 3fca 3abd 234b 0280 32eb d139 e268 9f8f
000000d0: 7ec3 34bb 1901 aabd 0c25 953c 786e 059a
000000e0: 8390 5198 2258 0e3d d998 e6bc b4b5 6e20
000000f0: 2891 cd88 ed1e 11ab d20d 423d 67b6 593d
00000100: 30ef 3c3c 85ca 0400 5614 eabc c5af 1588
00000110: 9219 cea9 6875 c723 40ee fe3c b080 019b
00000120: 33a3 4a90 c1be 0500 2458 2311 ecb4 0280
00000130: 8de3 3bbb 1c0d 7d3c 0722 0100 3a96 4a3d
00000140: 9772 08bc 1664 d53b cbc8 21bd 0cd4 daa4
00000150: 2160 05b5 8642 da3b f4e0 313d 0447 642b
00000160: 8ac3 d03c b8f1 84bc 14b6 0400 d726 5433
00000170: caa2 0000 ada4 ba37 7d67 383d eb84 0080
00000180: 1e3b e5bc 6764 0200 214c 7f94 7adb 0180
00000190: 6690 5d3d 866c b301 7c64 2eb8 507f 06a5
000001a0: d447 91bb 13b4 013d 322a 7e10 f1ae 3f17
000001b0: 3403 723d 834d e0bb 2685 160c c38b 7497
000001c0: 6a3b 0280 64ec 0280 eaf7 0300 9f1f 0180
000001d0: e4db 173b 06b6 443d 4bae e197 d375 3a3d
000001e0: 6816 0780 1aeb ac3c d254 0180 a776 1a3d
000001f0: cd9a c5a0 e60b 55af 60d6 4494 f4d6 c038
00000200: 6c1a e81f e31a 0599 588e ec22 0aca bdab
00000210: 222f 7abc 2aad 74a0 2cce feb8 73fa 158c
00000220: 9b45 f737 13e3 0500 e038 a89b 4977 8e3d
00000230: 72a5 1c3d a004 2a04 6885 8522 4127 9b34
00000240: f57a b2bb d9e5 2b3b fc18 0400 0db9 3e13
00000250: 9a2c cfba 5f18 96b3 12fc 7039 2305 240f
00000260: 614c e00d 6c4e dd3c 0da9 5b3b 211a 1a27
00000270: bdec c3b2 08a0 0204 68c5 10b7 db90 5830
00000280: df96 232e e544 dc3c a0dc 729d 11aa 5ea2
00000290: 7f81 043d 2a18 ba99 cca5 00a5 ebb0 c327
000002a0: b837 0733 5c3d c98e 0268 b88b 5f42 4e26
000002b0: f6ae 6e00 4b89 8e3d b695 6f9c d997 0580
000002c0: 37a7 a70c a400 b32b 4ec2 29b8 5aba ddaf
000002d0: 104c 710f 9c07 0098 a356 0280 b596 0200
000002e0: ad25 763d 3ec5 b13d 8803 7ab8 b3a0 bcb9
000002f0: 10bf 0b3b f95a 0080 49d8 a389 7ba4 0180
00000300: 9d59 3011 bd55 50bd 2e00 0f0f 32ce 0180
00000310: ee99 c33c c482 c207 fb24 0480 ad1b 0200
00000320: 42dc 4b3d 4f7c 423d 748a ad20 e90e 3931
00000330: ac38 d83c 8424 e03b 60d3 613d 7846 ea3a
00000340: c5ca dc3c 215a 803c 013c 893c 059d 9710
00000350: 5c20 ab0f 558f 7c3d e033 060a f40c 333d
00000360: 823d 0380 0b4e 9eba f95a 0500 a8be 9abb
00000370: 6b4d 233d ef73 8f3d aa29 dc9c 46e6 d22a
00000380: 34cd 31b8 9274 9635 31e2 92ba 3aca 483d
00000390: 1e26 0380 cc7d e622 825d 5aa1 2942 b996
000003a0: 96ac 0501 6474 2423 3ae3 9a9c bcc5 4638
000003b0: 9576 ecbb ac7d 8786 459e 8009 a318 10a2
000003c0: 125b 0380 2709 0400 aef0 30ba 9a8a 603b
000003d0: 4ecd f83c f1dd 623d 6f9f 04bc bba0 be36
000003e0: 75f9 6e3c e717 6cb0 acb4 1f3d b9cb 463d
000003f0: 7745 2fbd 23ea ed8d 9183 ba23 b74b 0700

bias f4 [9]
0.015693108 0.021928802 0.029803097 0.037804876 0.049839668 0.05543837 0.06777322 0.08056122
0.10116499
00000000: d58e 803c 08a4 b33c a025 f43c 49d9 1a3d
00000010: ae24 4c3d 5813 633d b0cc 8a3d 48fd a43d
00000020: 972f cf3d
