mlartifacts/677995553367563286/23a484e771e84331a006f755557ce001/artifacts/model/data/model.pth (torch, 245039 bytes, 10 tensors)

weight_ih_l0 f4 [100, 219]
000000 40 25 b4 ba f0 72 a8 b9 4a 28 62 ba 4d c8 ba ba
       -0.0013744012 -0.00032129092 -0.00086272194 -0.0014250368
000010 f9 73 41 ba 3f 44 83 ba 62 dc 51 ba b6 ff b8 ba
       -0.0007379647 -0.0010014846 -0.0008005557 -0.0014114294
000020 37 98 9c ba ee 04 f1 38 9e 42 0e b9 6c 55 4c b9
       -0.0011947219 0.00011492694 -0.00013566992 -0.00019486778
000030 1b 5b 25 b9 52 c9 0d b9 2c b9 56 b9 a1 16 eb b9
       -0.00015769566 -0.00013521806 -0.00020477612 -0.00044839553
000040 3f 36 b9 b9 57 5b b5 37 56 a5 8a b9 53 bc 97 b8
       -0.00035326366 2.1619415e-05 -0.00026444596 -7.235319e-05
000050 f3 a7 3b b8 6f ab ae b8 ff c1 b4 b9 9c 28 c8 b8
       -4.474069e-05 -8.3288985e-05 -0.00034476814 -9.544307e-05
000060 4c 36 be b8 77 8f c7 b8 82 5e 08 b9 73 ac 99 b9
       -9.0700196e-05 -9.515782e-05 -0.00013005178 -0.0002931092
000070 ec 81 3b 37 f4 38 f2 b8 7f c8 e3 b9 bc 5f 8c b9
       1.1176318e-05 -0.000115500676 -0.00043446195 -0.00026774209
000080 30 26 02 ba ac 2a de 37 55 e0 99 38 67 c1 00 b9
       -0.0004964797 2.6484333e-05 7.3373936e-05 -0.00012279079
000090 5c 92 72 b9 a1 fc 13 b9 71 82 83 b9 a4 cc 33 b9
       -0.00023133442 -0.00014113124 -0.00025083454 -0.00017147005
0000a0 48 06 13 ba 08 18 92 b8 61 d3 12 b9 db d1 81 b8
       -0.0005608541 -6.966299e-05 -0.0001400239 -6.190288e-05
0000b0 70 2e 22 b9 63 22 b2 b8 ae 71 ee b8 07 27 ab b9
       -0.00015466823 -8.4941064e-05 -0.00011369899 -0.0003264474
0000c0 56 88 12 38 2e 01 58 b9 33 3c de b8 25 18 8c b9
       3.4936085e-05 -0.00020599805 -0.00010596998 -0.0002672087
0000d0 be 4c ee b8 8b 28 06 b8 01 7b c5 b9 06 a8 2b b9
       -0.00011363019 -3.198585e-05 -0.00037666413 -0.00016370424
0000e0 e6 90 32 ba 47 62 f7 b9 16 47 3f ba e5 59 e3 b9
       -0.00068117527 -0.00047184734 -0.00072966644 -0.0004336379
0000f0 a9 17 b0 b9 fc 12 e1 38 6b 02 62 ba af e2 aa b9
       -0.00033586964 0.00010732372 -0.0008621576 -0.0003259382
000100 33 e7 a4 b9 b7 0c 2b ba d7 4e 15 ba c7 36 36 ba
       -0.00031452774 -0.0006525027 -0.0005695647 -0.00069509115
000110 4a 06 e5 38 ad 99 e4 b9 6f 41 2b ba 92 78 af ba
       0.00010920742 -0.00043602046 -0.00065328827 -0.0013387373
000120 e6 33 b5 ba a2 18 bc ba c9 de bf b9 3f c4 6c ba
       -0.0013824671 -0.0014350603 -0.00036596347 -0.00090319285
000130 dd 3f c0 ba 9f 88 2e ba 6d 57 88 ba 89 91 83 ba
       -0.001466747 -0.00066579314 -0.0010402031 -0.001003788
000140 be 02 be ba f3 c5 a5 ba 69 8e ae 38 53 b1 45 b9
       -0.0014496667 -0.0012647494 8.3234925e-05 -0.00018853442
000150 0d 14 3e b9 83 da 10 b9 08 41 c5 b8 f8 1e 9c b9
       -0.00018127282 -0.00013814312 -9.405805e-05 -0.00029777712
000160 f6 7f ed b9 b4 85 b2 b9 2a 57 51 38 a2 76 67 b9
       -0.000452995 -0.00034050422 4.991066e-05 -0.00022074071
000170 70 a9 c6 b8 9c 9d ce b8 5c 5f 8e b8 f8 31 44 b9
       -9.472936e-05 -9.8522025e-05 -6.78885e-05 -0.00018710631
000180 11 52 c0 b8 4e 76 b5 b8 b2 2a d9 b8 ff 8c 01 b9
       -9.1705595e-05 -8.6527885e-05 -0.00010355319 -0.00012354924
000190 db e6 97 b9 f4 5f 29 38 06 45 f4 b8 a3 af e5 b9
       -0.00028972965 4.0382103e-05 -0.00011647683 -0.00043809143
0001a0 9b 7f 81 b9 98 13 02 ba 78 7b 48 38 b8 7c 94 b7
       -0.0002469987 -0.0004962026 4.7798705e-05 -1.7701052e-05
0001b0 31 9f 84 b9 88 ab 8b b9 60 6b d0 b8 72 2c 6a b9
       -0.0002529561 -0.00026639947 -9.938213e-05 -0.00022332536
0001c0 5e 2c 8a b9 fb c9 2e ba 52 ab ff b8 a5 34 0a b9
       -0.00026354467 -0.00066676707 -0.000121912584 -0.00013180317
0001d0 44 30 09 b9 31 28 87 b8 27 d9 4b b8 97 01 04 b9
       -0.00013083318 -6.444788e-05 -4.860121e-05 -0.00012589093
0001e0 31 7b 8b b9 7a 3c a8 35 07 68 25 b9 9c 08 0d b9
       -0.0002660393 1.2534576e-06 -0.0001577438 -0.00013450015
0001f0 a4 8e a2 b9 59 09 2f b9 91 e7 90 b8 c5 b4 d0 b9
       -0.00031005323 -0.00016692783 -6.909588e-05 -0.00039807535
000200 35 cc 99 b9 ba 34 0d ba 94 05 01 ba 0c b3 48 ba
       -0.0002933458 -0.000538658 -0.00049217907 -0.00076560746
000210 e4 ac e8 b9 b5 56 b3 b9 90 81 f7 38 18 ab 78 ba
       -0.00044379302 -0.00034206142 0.00011802011 -0.0009485944
000220 7a ba a6 b9 83 82 bd b9 eb cc 32 ba 68 f6 16 ba
       -0.00031800923 -0.00036146128 -0.0006820696 -0.0005758763
000230 81 61 2b ba bf db da 38 04 fb d7 b9 1c 22 2d ba
       -0.00065376615 0.00010435981 -0.00041195017 -0.0006604509
000240 22 01 ae ba 45 63 b5 ba af 5d ba ba 7a 27 b6 b9
       -0.0013275484 -0.0013838789 -0.0014218594 -0.00034743157
000250 cc eb 71 ba 80 84 bd ba c8 ae 40 ba 95 2a 84 ba
       -0.0009228557 -0.0014459044 -0.0007350263 -0.0010083491
000260 55 52 81 ba 51 ae b7 ba 21 2f a5 ba 23 69 99 38
       -0.0009866456 -0.0014013742 -0.0012602546 7.315192e-05
000270 e6 f5 2d b9 0f 84 55 b9 f2 22 37 b9 45 96 22 b9
       -0.0001659017 -0.00020362459 -0.00017465258 -0.00015505504
000280 2f 20 5c b9 c0 b2 ec b9 44 6f b3 b9 fd 28 9b 38
       -0.00020992824 -0.00045146607 -0.0003422444 7.3986106e-05
000290 b9 bd 96 b9 ec 2a c7 b8 b9 72 47 b8 9a 72 34 b8
       -0.00028751584 -9.497054e-05 -4.755214e-05 -4.3022075e-05
0002a0 49 21 26 b9 df f3 aa b8 10 50 85 b8 d5 be bb b8
       -0.00015843393 -8.151656e-05 -6.356847e-05 -8.9524e-05
0002b0 9c 51 02 b9 96 db 9d b9 6e 91 80 37 3d 51 fe b8
       -0.00012428168 -0.00030108978 1.532651e-05 -0.000121267956
0002c0 43 52 df b9 f7 24 8b b9 dc 2c 02 ba cb b3 18 38
       -0.00042595164 -0.00026539687 -0.0004965791 3.640707e-05
0002d0 33 51 86 37 cb b8 23 b9 6e b3 83 b9 dc 0f 34 b9
       1.6011856e-05 -0.00015613732 -0.00025119953 -0.00017172046
0002e0 46 8d 20 b9 f0 b6 79 b9 ea c8 15 ba 0e 4f 90 b8
       -0.00015311418 -0.0002381464 -0.00057138375 -6.88118e-05
0002f0 04 85 20 b9 18 69 5e b9 7a 0d 79 b8 c5 b1 77 b8
       -0.00015308341 -0.0002121072 -5.9378777e-05 -5.905495e-05
000300 8f e0 28 b9 6c db c2 b9 a0 ea 02 37 09 23 57 b9
       -0.00016105383 -0.00037166046 7.803232e-06 -0.0002051705
000310 3c bb 0f b9 74 ca 9f b9 55 39 0a b9 56 c4 73 b8
       -0.00013707293 -0.00030477683 -0.00013182063 -5.8118567e-05
000320 0e 45 d5 b9 84 c3 5d b9 86 d9 05 ba d8 5f f7 b9
       -0.00040677976 -0.00021149038 -0.0005105961 -0.0004718292
000330 24 ea 39 ba 19 59 d9 b9 a6 53 c1 b9 9d 29 d6 38
       -0.00070920796 -0.00041455848 -0.00036874152 0.00010212066
000340 33 e0 5f ba 6e 64 ab b9 43 c8 b8 b9 9c 3c 2b ba
       -0.0008540183 -0.00032690488 -0.0003524442 -0.0006532164
000350 cc a4 f7 b9 b1 6d 23 ba 57 4b 0b 39 ae bc ed b9
       -0.00047234294 -0.0006234302 0.0001328414 -0.0004534474
000360 93 b3 26 ba 37 d3 ae ba c9 50 b5 ba 3f a0 18 3d
       -0.0006359156 -0.0013338093 -0.001383328 0.037262198
000370 f9 94 df 3c 15 f5 fe 3c 95 c8 0d 3d 8a ec 03 3d
       0.027292715 0.031122724 0.034615118 0.032208003
000380 81 35 1c 3d 9a e6 a1 3c c1 f5 9e 3c 5a 2f 15 3d
       0.038136963 0.01976328 0.019404294 0.03642211
000390 29 e7 16 ba 3e b3 f6 bb 2f 25 e9 b9 a1 a1 9a bb
       -0.00057564914 -0.0075286916 -0.00044468927 -0.0047189747
0003a0 fc 8e 62 bb 38 90 27 3c 21 65 1d bc a2 2d b0 3b
       -0.0034570089 0.0102272555 -0.009606631 0.0053765336
0003b0 47 a4 4e bc f6 8f d5 b9 e0 23 fa 3b bf 0a a3 39
       -0.012612409 -0.00040733785 0.007633671 0.0003109779
0003c0 a1 ba b0 3c 4b cd ee 3b a4 c4 5e 3c 36 25 8d 3c
       0.021573367 0.0072876564 0.0135966875 0.017229658
0003d0 ec 20 b8 bc 9c 10 fc 3b 21 b0 5d 3c 25 12 6e 3c
       -0.022476636 0.0076924097 0.013530762 0.014530693
0003e0 87 47 3f bc 49 c9 8b 3c 46 e5 9f 3b 65 ea 98 3c
       -0.011674768 0.017063754 0.0048796264 0.018666456
0003f0 44 bd db ba f7 7b 56 bc 07 ae 36 3c 39 0a 43 bc
       -0.001676478 -0.013091079 0.01114989 -0.011904293

weight_hh_l0 f4 [100, 25]
000000 98 9c 23 b8 11 f9 f9 b9 03 54 6a 3a 96 b0 91 b7
       -3.9008068e-05 -0.0004767855 0.00089389103 -1.7367576e-05
000010 90 e1 87 ba e6 90 a5 36 0d 78 13 36 fb 49 8a 38
       -0.0010366905 4.9342516e-06 2.1974586e-06 6.594133e-05
000020 0b 6e 22 b9 c2 d3 59 b8 70 e3 b1 37 c0 30 29 38
       -0.00015490518 -5.1934046e-05 2.1205953e-05 4.0338142e-05
000030 4e 34 36 38 3e 3b 10 38 f4 98 96 36 64 1e 15 ba
       4.3440894e-05 3.438745e-05 4.4881544e-06 -0.00056884275
000040 aa 19 bb 37 1f 83 5f 38 1e 5a 64 37 53 04 81 37
       2.2304088e-05 5.328946e-05 1.3610841e-05 1.5380012e-05
000050 c8 14 58 b7 13 be 3c 39 a8 22 bc b7 7c 7a 02 b6
       -1.2879442e-05 0.00017999885 -2.2427485e-05 -1.9442805e-06
000060 4d 17 3c b9 b9 d1 be ba b8 40 a2 3b 11 83 04 bd
       -0.00017937757 -0.0014558352 0.0049515627 -0.032351557
000070 c1 de ce 3a 69 cd fd 3c 1b e1 e3 37 5e d2 3b 38
       0.0015782939 0.030981736 2.7165332e-05 4.4780194e-05
000080 ad 8c 34 3b f7 8a 25 3b a0 aa 13 3b 4a fc 0f 3b
       0.002754967 0.0025259831 0.002253212 0.0021970444
000090 ce 16 23 bb 00 e5 15 ba fc 16 6c 3b b2 e9 c1 39
       -0.0024885419 -0.00057180226 0.0036024442 0.00036985945
0000a0 0e 69 94 3c e6 a0 9a bb 5e 4f 4d 3a e9 8b 0a ba
       0.0181165 -0.0047188876 0.0007831956 -0.00052851305
0000b0 8d d0 a2 ba e5 4f 85 3b fa ff 03 bc bd 12 31 bb
       -0.0012421772 0.004068362 -0.008056635 -0.0027019226
0000c0 83 b7 a1 37 ee 71 fb 3c 5e 41 aa 3a 35 03 94 3c
       1.927815e-05 0.030693974 0.0012989452 0.018067935
0000d0 ad 5d 35 bc 16 f7 ab ba 0b a4 8d 3b f9 cd 71 b8
       -0.011069697 -0.0013119902 0.004322534 -5.7650705e-05
0000e0 30 f4 4f b8 b8 b2 2e bb 4a df c8 3b 67 84 0a 3b
       -4.9580063e-05 -0.0026656818 0.0061301338 0.0021136047
0000f0 cb 23 04 bb 70 6f 2b 3b bf a1 32 3a 10 45 63 bb
       -0.0020162936 0.0026158951 0.0006814263 -0.0034678616
000100 50 8f ca b9 31 84 67 3c bf 33 96 3b c4 a1 8a ba
       -0.00038635219 0.014130638 0.0045838053 -0.0010576774
000110 4f 8e 4c 39 f6 c8 73 3a b5 84 31 bb 8c 79 0b bc
       0.0001950797 0.000929966 -0.0027087156 -0.008512866
000120 9e 61 2f 3b 11 81 40 38 40 ac 28 3c 5a 8d 85 37
       0.0026761065 4.589657e-05 0.010294974 1.5920657e-05
000130 36 86 38 3a 08 2f 28 38 d1 54 5e 38 f9 8d fb 37
       0.0007039042 4.0098123e-05 5.3007916e-05 2.9987643e-05
000140 c3 ae d4 33 f7 86 39 b4 cf 5f 44 b8 b9 40 3f 39
       9.903808e-08 -1.7278568e-07 -4.681927e-05 0.0001823929
000150 95 e8 45 39 09 62 b9 b7 41 3d 76 37 57 1b 3d b7
       0.00018874028 -2.209937e-05 1.4677004e-05 -1.1271643e-05
000160 91 9c e1 b7 3f f5 b9 35 ce ea ca b7 07 c3 83 38
       -2.6894997e-05 1.385495e-06 -2.4189616e-05 6.2828934e-05
000170 4b 33 6b b7 c4 a3 05 35 41 61 14 37 12 10 1e b8
       -1.4019034e-05 4.978467e-07 8.844131e-06 -3.7685102e-05
000180 36 85 2d ba d3 af 2e 38 ce 15 cb 35 e4 18 ff 39
       -0.0006619276 4.1648582e-05 1.5131025e-06 0.00048655935
000190 f4 76 99 3a bf 0c 1a 3d b0 9b 13 bd f2 88 b7 ba
       0.0011708424 0.037609812 -0.036037147 -0.0014002605
0001a0 41 47 30 bb be 2d f1 38 3c 83 5f b8 8a 89 84 bb
       -0.002689794 0.00011500296 -5.3289565e-05 -0.0040447162
0001b0 b6 35 60 3c 2c 35 f7 3b f4 36 a9 ba c2 82 62 3b
       0.013684681 0.0075441804 -0.0012910054 0.00345628
0001c0 57 6f 90 3a 2a af 34 bb b2 94 ac b9 f0 2e 22 bc
       0.001101951 -0.0027570226 -0.00032917183 -0.009898886
0001d0 4b d5 a4 3b 8b 80 a2 ba 02 0d 44 39 f2 63 ee 39
       0.0050303093 -0.0012397928 0.00018696862 0.00045469363
0001e0 11 a2 2a bb 37 3f d3 bc 0d b5 44 3b 03 3f 83 38
       -0.002603654 -0.02578698 0.0030015141 6.2583036e-05
0001f0 2a 4e 78 3b c6 5f ad b4 84 6a aa b6 71 74 f8 36
       0.0037888386 -3.2293445e-07 -5.078795e-06 7.4045315e-06
000200 04 65 79 b2 16 03 4d b7 bf 9d 26 33 74 0c a4 32
       -1.4516676e-08 -1.2219671e-05 3.8793356e-08 1.9097776e-08
000210 83 f5 24 35 4e d2 c2 b5 ea 00 c7 b4 be 98 7a 34
       6.145203e-07 -1.4515333e-06 -3.7067304e-07 2.3338632e-07
000220 22 97 c7 b3 16 49 32 34 9c 55 0a 35 f1 e6 74 33
       -9.2941505e-08 1.660413e-07 5.1533584e-07 5.7020717e-08
000230 7e b6 16 b7 9c c1 35 b5 dc f4 86 34 9d ca 72 b2
       -8.9831865e-06 -6.7709493e-07 2.5137604e-07 -1.4132323e-08
000240 c0 ca 8d b3 4d 36 89 34 50 70 df 35 2b 02 b3 b4
       -6.602704e-08 2.5557748e-07 1.6647482e-06 -3.3342926e-07
000250 9f b3 63 b1 7c da 4a b5 fc ca ca b3 d8 08 5f b5
       -3.313495e-09 -7.55688e-07 -9.443281e-08 -8.3086843e-07
000260 35 c2 e0 35 3c 7e 27 b3 51 ae e1 b5 cf 3d fc 31
       1.6745822e-06 -3.8997527e-08 -1.6814539e-06 7.341192e-09
000270 c9 84 74 31 13 99 17 34 9e 7b b2 b4 e5 98 ff b3
       3.5582153e-09 1.4118659e-07 -3.3245027e-07 -1.1902174e-07
000280 01 d4 f0 32 f3 ba e9 33 cd 91 fa 33 da a9 09 34
       2.8036085e-08 1.0883914e-07 1.1668053e-07 1.2820911e-07
000290 e3 50 50 32 82 16 9f b5 76 cd d8 b3 1e c2 de 33
       1.2125585e-08 -1.1852974e-06 -1.0095657e-07 1.037299e-07
0002a0 a3 21 8d 33 cd 83 d5 32 8b 53 01 b3 c3 f1 df 34
       6.5719426e-08 2.48564e-08 -3.0111135e-08 4.1712892e-07
0002b0 f8 88 87 b3 d0 11 7d b1 97 22 15 34 ca c9 3d b8
       -6.311342e-08 -3.682647e-09 1.388929e-07 -4.5249042e-05
0002c0 57 de 3e ba 04 7c fc 3a ff 2f 5b b8 26 27 1d bb
       -0.0007281056 0.0019263034 -5.225837e-05 -0.0023979633
0002d0 1b 6b d1 36 be c2 22 36 8f 67 1b 38 4b f0 0b b9
       6.241154e-06 2.4253236e-06 3.7051326e-05 -0.00013345589
0002e0 62 33 34 b8 0e c0 bc b7 06 aa 22 39 2d 1d cc 38
       -4.29632e-05 -2.2500779e-05 0.00015512863 9.7329124e-05
0002f0 54 2f e0 37 ac 17 23 b5 44 d9 36 ba 23 50 32 39
       2.672492e-05 -6.075668e-07 -0.0006975124 0.00017005256
000300 b6 38 42 38 42 8b b1 37 da 48 9e 38 68 1a 00 b9
       4.630602e-05 2.1164891e-05 7.547597e-05 -0.00012216868
000310 ae be a4 38 d2 ea 18 b7 5a bf 7b b5 52 4e 8d b9
       7.855646e-05 -9.114579e-06 -9.378324e-07 -0.0002695197
000320 bd a3 8a 39 90 a4 54 3b fb 7c 88 b9 e3 72 a2 39
       0.00026443406 0.003244672 -0.0002603306 0.00030984645
000330 f2 6c 60 3a a7 a7 87 b6 32 a1 79 b7 89 77 19 b9
       0.0008561156 -4.042831e-06 -1.4879088e-05 -0.00014635747
000340 94 91 e8 39 5a 53 17 3a 01 31 2f b9 0c 9e 74 b9
       0.00044358952 0.0005772613 -0.00016707556 -0.0002332853
000350 77 ab 99 b9 25 7d da b9 87 77 1d b7 71 cd 9b 3b
       -0.00029310185 -0.0004167344 -9.385759e-06 0.004754715
000360 56 88 d0 39 22 33 71 b9 4b 36 c2 b8 63 d2 42 b9
       0.0003977443 -0.000230026 -9.260754e-05 -0.00018579657
000370 6c 39 ff 35 cb 75 ca ba 10 04 48 39 4c 98 0b 37
       1.9015692e-06 -0.0015446482 0.00019075 8.320505e-06
000380 11 8b fa ba b3 a9 88 38 7a f7 bd 3a be fb d6 ba
       -0.0019114931 6.516594e-05 0.001449331 -0.0016401929
000390 28 06 3e 39 5a 1d 3e 39 02 b1 60 b5 d2 48 dd b5
       0.00018122105 0.00018130746 -8.3704083e-07 -1.6486977e-06
0003a0 50 b8 7f b8 fc 7d fc 39 a1 bf ea 39 06 1f 01 b8
       -6.0968392e-05 0.0004815905 0.00044774733 -3.078489e-05
0003b0 0e d9 90 38 88 ea 8c b8 9a 00 b3 b8 cb 7f 4a b6
       6.906885e-05 -6.719405e-05 -8.535497e-05 -3.017473e-06
0003c0 74 b3 f9 39 5e 8a 35 38 3e fe 8c b8 f8 ae 0d b6
       0.00047626684 4.3282627e-05 -6.7230765e-05 -2.1112483e-06
0003d0 2c 39 61 b6 da 8a 93 b7 cc cb cc ba 6d ef a0 37
       -3.356089e-06 -1.7588423e-05 -0.0015624701 1.9184978e-05
0003e0 e5 c1 9c 35 31 6e 60 ba c7 c3 ad 36 dd f4 70 b9
       1.1679336e-06 -0.00085613417 5.1785933e-06 -0.00022979402
0003f0 dc 3a 9b 39 22 46 21 b8 a9 15 d4 b9 cc df db 35
       0.00029607757 -3.8450708e-05 -0.0004045193 1.6381905e-06

bias_ih_l0 f4 [100]
000000 10 f9 12 bb 39 28 a4 3d e6 52 d6 3d 42 09 ff 3a
       -0.0022426285 0.08015484 0.1046503 0.0019457715
000010 7e 23 f8 3d 4d 68 d2 b7 2f 2f ae b6 2e c9 4c bb
       0.121161446 -2.508252e-05 -5.191097e-06 -0.0031247842
000020 92 73 ee 3b c9 4e 49 3b b2 31 20 ba c5 96 00 bc
       0.0072769606 0.0030717126 -0.0006110921 -0.007848446
000030 04 b6 8b bb 75 c3 30 bb 2f 77 b1 b8 51 d3 cf 3d
       -0.0042636413 -0.002697197 -8.4622174e-05 0.10147727
000040 41 7a 70 bb 5d 25 bd ba 1c 72 ff b9 30 4b a9 ba
       -0.0036693963 -0.0014430691 -0.00048722408 -0.0012916084
000050 56 65 33 bb 15 1e f4 3c f3 67 2f ba 12 3d 31 b6
       -0.0027373633 0.0297995 -0.000669121 -2.6410603e-06
000060 46 ce cf 3d b8 c7 10 bb e5 be b9 3c aa 30 92 3d
       0.101467654 -0.0022091698 0.022674033 0.07138188
000070 9e 18 71 39 ee 3c 16 3d 7c ed d2 b7 60 58 aa b6
       0.00022992722 0.0366792 -2.5144538e-05 -5.076683e-06
000080 5e 6e 4b bb 4f 49 82 3b 54 bd 38 3b 32 75 29 ba
       -0.0031041126 0.003976024 0.002818902 -0.0006464302
000090 bb d9 cd bb 2f 6d 6d bb 8a 56 3e bb 5a 11 b7 b8
       -0.006282059 -0.0036228409 -0.002904328 -8.729352e-05
0000a0 59 1b 73 3d 69 55 84 bb 76 4b c6 ba 32 02 d0 b9
       0.059352253 -0.004038502 -0.001512869 -0.00039674487
0000b0 c4 d1 89 ba 78 81 13 bb 7e 87 16 3d 9f e0 4e ba
       -0.0010514786 -0.002250759 0.03675031 -0.00078917475
0000c0 2f cf 22 b6 24 ab 83 3d fd 41 01 3a ca 06 69 3d
       -2.4260478e-06 0.06429127 0.00049307925 0.05689124
0000d0 99 cb bd bd d1 2f 28 3d 4a 30 a0 3d 6f 98 e4 b8
       -0.09267349 0.041061226 0.078217104 -0.0001090028
0000e0 1c 65 05 bb af 4e ce b9 bb e3 3c bc 84 65 29 bb
       -0.0020354455 -0.00039350006 -0.011528905 -0.0025847862
0000f0 7e 1e 53 ba 10 7b bd b8 51 cb b8 b9 50 fe b3 b9
       -0.0008053555 -9.0351445e-05 -0.00035246697 -0.00034331018
000100 37 0e 0b ba 0c d7 9a bc e2 5b 10 3a 42 d5 38 ba
       -0.00053045474 -0.01890137 0.00055068557 -0.0007050821
000110 c3 9b 42 ba 5c 20 0a ba 80 08 e8 37 6a d9 71 bb
       -0.0007423723 -0.0005269104 2.7660513e-05 -0.003690327
000120 cd f5 a1 3a 3f 7a 07 3c ab dc 7e 3b f7 64 13 bb
       0.001235658 0.008268892 0.0038888853 -0.00224906
000130 aa 83 dc 3c b2 c0 d2 3d 93 ff 97 3b 49 55 a6 3d
       0.026918251 0.1029066 0.004638621 0.081217356
000140 af 5e d3 b7 6c cf b4 b6 6c ec 43 bb 04 a1 f4 3b
       -2.519725e-05 -5.388565e-06 -0.0029895557 0.0074654836
000150 8b 44 54 3b 4f 5a 12 ba 81 1d 04 bc dd 07 8c bb
       0.0032389488 -0.0005582915 -0.008063675 -0.0042733983
000160 c2 f8 1b bb cf 1c af b8 43 eb 8f 3d 5b d4 6b bb
       -0.0023799394 -8.350016e-05 0.070272945 -0.0035984728
000170 87 c2 b4 ba d5 e5 ff b9 3f a0 a4 ba 9c 66 36 bb
       -0.0013790884 -0.00048808628 -0.0012559964 -0.0027832156
000180 d5 c5 0c 3d 3a 0a 34 ba cb 9d 32 b6 23 cb 15 3d
       0.034368355 -0.0006867979 -2.6615915e-06 0.03657068

bias_hh_l0 f4 [100]
000000 78 f1 12 bb fb bd aa 3d 07 dc a8 3d e7 a6 ed 3a
       -0.0022421759 0.08337017 0.08245092 0.0018131406
000010 79 f4 f6 3d 10 23 d2 b7 46 82 ae b6 c6 ed 57 bb
       0.12058348 -2.5050278e-05 -5.20077e-06 -0.003294812
000020 ac 69 ee 3b ef 64 49 3b b1 7a 1f ba c2 c7 00 bc
       0.0072757807 0.0030730327 -0.0006083651 -0.007860126
000030 12 d7 8b bb 7c 64 2e bb ba b6 b0 b8 7e 85 c0 3d
       -0.0042675817 -0.0026610186 -8.4263695e-05 0.094004616
000040 d2 07 80 bb 08 e1 c0 ba 06 8b 01 ba ea 26 a9 ba
       -0.0039071823 -0.0014715502 -0.00049416756 -0.0012905274
000050 01 90 31 bb 37 1e f4 3c a6 4a 33 ba 6e 4d 31 b6
       -0.002709389 0.029799564 -0.00068394316 -2.6420125e-06
000060 49 33 d3 3d 4a f2 10 bb 16 f4 1e 3d c4 17 d6 3d
       0.10312516 -0.0022117072 0.038806997 0.10453752
000070 ed 6b 9c b9 50 e0 6e 3d 75 a9 d3 b7 3f 7a a9 b6
       -0.0002983505 0.05831939 -2.523207e-05 -5.050824e-06
000080 31 1e 4c bb 9b 75 82 3b cc 2b 39 3b 36 59 29 ba
       -0.0031145925 0.003981305 0.0028254865 -0.0006460132
000090 7c 67 cd bb d6 3c 6d bb 15 a1 46 bb 9e 87 b5 b8
       -0.00626844 -0.003619959 -0.0030308415 -8.656013e-05
0000a0 ad b5 79 3d 82 f0 8a bb 2c 7b bb ba 4b 74 d1 b9
       0.060964275 -0.0042400965 -0.0014303676 -0.0003995023
0000b0 f8 d3 89 ba 26 cb 16 bb 9b 87 16 3d cf ca 4e ba
       -0.0010515442 -0.002300927 0.036750417 -0.0007888497
0000c0 dd 98 22 b6 e9 54 96 3d 96 0f c7 39 01 13 26 3d
       -2.422886e-06 0.07340414 0.0003796785 0.040545467
0000d0 84 2a 77 bd f9 92 c7 3b d3 07 c1 3d a3 8b b7 b8
       -0.06034328 0.0060905186 0.094253205 -8.752129e-05
0000e0 45 e6 fb ba 30 6b 06 ba 75 3c eb 3c c6 d1 93 ba
       -0.0019218406 -0.00051276665 0.028715352 -0.0011277727
0000f0 cb 76 63 ba b0 c4 58 b8 cb 7e b7 b9 0e 6f b9 b9
       -0.00086770643 -5.1681593e-05 -0.00034998948 -0.00035368692
000100 f4 91 e8 b6 2f 17 b0 3d f8 bb de 39 0f 17 38 ba
       -6.93113e-06 0.08598172 0.00042483187 -0.0007022479
000110 2d e2 34 ba 08 ea eb 3a ca cd 32 39 82 16 10 3b
       -0.0006900158 0.0017998824 0.00017052065 0.0021986072
000120 d3 ad c2 3a 7a e6 cc bb 38 44 af 3d 85 83 13 bb
       0.0014852829 -0.006253061 0.085579336 -0.0022508812
000130 4b 2e 00 3d 97 f0 bc 3c aa d5 81 b9 40 f2 a0 3d
       0.03129415 0.02306394 -0.0002476399 0.078587055
000140 7f 93 d3 b7 27 48 b4 b6 2c f8 43 bb 00 78 f4 3b
       -2.5221843e-05 -5.3728177e-06 -0.002990256 0.007460594
000150 92 6c 54 3b cd 59 12 ba 14 13 04 bc 8f 0d 8c bb
       0.0032413346 -0.00055828394 -0.008061189 -0.0042740772
000160 83 18 25 bb 30 b7 ae b8 a2 b2 44 3d 62 34 7e bb
       -0.0025191612 -8.331088e-05 0.04802192 -0.0038788547
000170 4c 1c b7 ba bb d6 00 ba 4a c7 a5 ba 41 17 36 bb
       -0.0013970225 -0.000491481 -0.0012647894 -0.0027784857
000180 c5 c5 0c 3d 94 38 34 ba f1 aa 32 b6 cb 9b 1f 3d
       0.034368295 -0.0006874886 -2.6623568e-06 0.038966935

weight f4 [100, 25]
000000 80 7b 01 94 92 f8 c4 95 55 84 0f 95 6d 26 ec 14
       -6.537192e-27 -7.9555944e-26 -2.8983012e-26 2.3845067e-26
000010 ea 5f 4a 16 4a 5d fd 10 1e 8a 23 10 73 69 cf 92
       1.6347695e-25 9.993464e-29 3.2252483e-29 -1.3089532e-27
000020 53 3f 2e 96 88 54 fb 13 6d 48 06 11 9b 2a 62 14
       -1.407559e-25 6.3444662e-27 1.0593054e-28 1.14184866e-26
000030 38 99 02 12 18 9c c4 92 0f 25 5d 92 14 b9 f8 95
       4.1209624e-28 -1.2407819e-27 -6.978098e-28 -1.00458404e-25
000040 38 2f e6 93 f6 26 e3 13 37 33 bc 92 4d bb 4f 93
       -5.8106724e-27 5.7341275e-27 -1.1877093e-27 -2.621942e-27
000050 34 2f 51 92 6a b7 0f 14 66 92 78 92 cc 2a bd 0e
       -6.6006954e-28 7.255827e-27 -7.843545e-28 4.663331e-30
000060 ef 8c 71 95 99 d9 12 05 da ee 3c 1f 04 0c 2f 2e
       -4.878074e-26 6.9048534e-36 4.0008122e-20 3.9801065e-11
000070 ce bd 95 9e 48 45 6a 2a ed 92 c3 2b 01 d0 c9 97
       -1.585449e-20 2.0807412e-13 1.3896363e-12 -1.3041828e-24
000080 b5 31 13 17 82 bb 0e 06 8f e3 1a 2d 11 2f 01 80
       4.7561e-25 2.684499e-35 8.804415e-12 -1.0872e-40
000090 ef 44 03 00 6e fe fe 1f 54 e8 cf 04 f6 10 cb 90
       3.00235e-40 1.079941e-19 4.8878826e-36 -8.0095514e-29
0000a0 04 16 7b 25 06 b0 06 80 cd 9d 10 00 88 aa 01 00
       2.1778239e-16 -6.14158e-40 1.525976e-39 1.5301e-40
0000b0 0e a7 01 80 4a 5f 87 84 06 8d 8e 85 6d 69 00 00
       -1.51763e-40 -3.1825857e-36 -1.340542e-35 3.782e-41
0000c0 04 28 05 00 24 93 81 1a 41 fa bf ba 83 83 a9 3d
       4.73532e-40 5.359087e-23 -0.0014646725 0.08277037
0000d0 07 4a 26 3e cc 0c 9c bc 91 bf 72 be 54 fb 8a 39
       0.16239177 -0.01904907 -0.2370589 0.00026508665
0000e0 5b a6 b8 38 0a fa f5 3a 20 a4 53 3d 51 4e b3 3c
       8.80479e-05 0.0018766534 0.051670194 0.02188793
0000f0 e8 fd 0c 3b 2e 1a 46 bb 0c 78 bb b9 75 09 ea 3a
       0.0021513645 -0.0030228007 -0.0003575686 0.0017855602
000100 0a 74 59 3b 46 03 75 3c 5e 63 c1 ba 18 83 35 3a
       0.0033180737 0.014954394 -0.0014754345 0.00069241365
000110 2e c2 82 b9 d0 55 bc ba 99 ef f8 3a 48 49 67 bd
       -0.00024940207 -0.0014368836 0.0018992304 -0.05646637
000120 ef 97 9a ba 46 52 f0 b8 7d e2 1e 3d da 30 77 3a
       -0.0011794547 -0.000114594164 0.038790215 0.00094295817
000130 e6 c4 0f bc b0 62 a0 bb 1e c6 d1 b9 41 bc 89 3c
       -0.008774972 -0.004894577 -0.00040011195 0.0168134
000140 96 68 0e 38 2a 40 4a b8 92 4b 05 bb 08 d6 ac 3a
       3.395284e-05 -4.822031e-05 -0.0020339233 0.0013186345
000150 d2 95 02 3b b1 b9 9c ba b5 dc bb 3a ae 38 fd 38
       0.0019925726 -0.0011957196 0.0014332744 0.000120745375
000160 b0 80 0a bb f5 ca 84 b9 a5 a2 b8 bc d3 7c 64 3b
       -0.0021133833 -0.00025328217 -0.022538492 0.003486444
000170 91 fb 5c ba e4 38 25 38 af e7 22 3a c3 cd fc ba
       -0.00084298203 3.939205e-05 0.0006214333 -0.0019287396
000180 57 71 11 bc b6 7e 07 3b d5 66 43 38 dc 75 dc 3c
       -0.00887712 0.002067489 4.6587393e-05 0.026911668
000190 d7 f8 c9 37 58 21 e3 b9 1f 4e 9c 39 50 d9 ce b8
       2.4076942e-05 -0.00043321657 0.00029812843 -9.863323e-05
0001a0 1b 44 d8 b8 79 a1 b2 34 d6 11 7e b4 51 77 00 b8
       -0.00010312368 3.327257e-07 -2.3662082e-07 -3.06287e-05
0001b0 11 45 cd 38 7e af 8d b8 f1 71 0d 37 3e 39 08 36
       9.7880264e-05 -6.756092e-05 8.430784e-06 2.0298899e-06
0001c0 6a 79 42 37 2d 11 05 b8 9b 65 47 b4 af bc ff b8
       1.159157e-05 -3.1725667e-05 -1.8570283e-07 -0.000121944926
0001d0 30 59 cd b4 d7 d5 87 35 70 75 08 b5 58 0a 81 35
       -3.8249118e-07 1.0120519e-06 -5.083484e-07 9.614259e-07
0001e0 a1 62 d9 36 32 a3 34 39 a9 b3 89 b6 4a fd 4d 33
       6.478586e-06 0.00017226933 -4.1038334e-06 4.7960647e-08
0001f0 46 08 1c 3a 71 1c 91 ad 7c 97 57 ad ba 2e b6 2d
       0.00059521606 -1.6497222e-11 -1.2254971e-11 2.0711755e-11
000200 7e e9 a6 ad 9a 78 82 b6 6a e5 15 ac 9b 18 84 aa
       -1.8975706e-11 -3.888342e-06 -2.1301524e-12 -2.3464984e-13
000210 e6 c5 25 ad 7c 62 1f ac 55 94 10 2e 16 4c df ac
       -9.423106e-12 -2.2649929e-12 3.2873555e-11 -6.3464884e-12
000220 11 8e 49 2d 41 6b 9b 2d 19 2e 57 ad 45 4f ef 2a
       1.1457072e-11 1.766909e-11 -1.2231571e-11 4.2509933e-13
000230 74 c8 4f b7 7e 0e 93 ad 7e f3 98 2d 46 52 b8 ac
       -1.2384833e-05 -1.6718401e-11 1.7388532e-11 -5.2387287e-12
000240 db 49 1a 2d 53 74 f2 2c ae be ac ae d8 bb d2 2d
       8.770286e-12 6.8909683e-12 -7.855526e-11 2.3957655e-11
000250 9c 4d 6e 2b d0 fe 33 ad 2f 32 9a 3a 07 01 c1 bc
       8.466229e-13 -1.0231552e-11 0.0011764223 -0.02356006
000260 9c fa e1 bc 57 03 87 ba e0 33 36 3d c0 6d 60 b7
       -0.02758532 -0.0010300678 0.044483066 -1.3376994e-05
000270 1a b6 9b b7 f9 32 39 bb a4 98 cc ba b8 e4 dd ba
       -1.8562238e-05 -0.0028259142 -0.0015609455 -0.0016929125
000280 f7 ed f0 ba 9d 8a 11 3b e5 99 f8 39 19 a4 51 bb
       -0.0018381466 0.0022207864 0.00047416906 -0.003198868
000290 08 15 ec b9 c5 1e e6 bc 7b f0 97 3b 2f 07 82 ba
       -0.00045029097 -0.028090844 0.004636822 -0.0009920354
0002a0 19 8b 80 39 2d f6 6c 3a 27 db 28 bb ec 54 86 3b
       0.00024517698 0.00090393686 -0.002576539 0.004099479
0002b0 f4 cc 28 3b b5 84 f1 37 75 ed e3 3c 46 20 c5 3a
       0.0025756927 2.8791235e-05 0.02782319 0.0015039525
0002c0 34 ee f8 bd b8 49 b8 bd b0 dc 9c bb 0e c4 85 3d
       -0.12154809 -0.08998436 -0.00478705 0.06531535
0002d0 2e be 42 ba c4 46 49 b9 56 de 83 bb 6c 2f 13 bd
       -0.00074288517 -0.00019195216 -0.0040243072 -0.035933897
0002e0 5e d6 db bc 2b 80 02 bb 60 00 b7 3b a0 9e 07 3b
       -0.026835617 -0.001991282 0.0055847615 0.0020693913
0002f0 ec 3c 90 bb 42 72 0f bb f3 3a 8d bd 50 72 ce 3b
       -0.0044017937 -0.0021888171 -0.06896009 0.006300248
000300 cf d6 d9 ba 61 94 a6 3a ad ef 61 3b 19 42 aa bb
       -0.0016619804 0.0012709015 0.0034475133 -0.0051958677
000310 1d 57 21 3d 33 98 9c 3b 14 f8 43 38 bc dc cf 3d
       0.03938972 0.0047788857 4.6722664e-05 0.101495236
000320 6a 11 48 3b 00 7e b5 bd 6a e4 14 bc ea a3 07 bc
       0.0030527958 -0.08861923 -0.009087661 -0.008278826
000330 56 2c 16 3d 36 16 16 ba f8 fb 23 b9 b6 92 b8 bb
       0.036663376 -0.00057253556 -0.00015638757 -0.0056327237
000340 23 69 95 bc ae 55 ae bc 78 77 80 bb 4a 24 9b 3b
       -0.01823861 -0.02128109 -0.003920492 0.0047345506
000350 3b 2c cc 3a 88 db de bb 82 2f 89 ba fb 29 dc bc
       0.0015577147 -0.0068010725 -0.0010466429 -0.026875487
000360 fa df 01 3c b1 e9 16 bb 0b 00 42 3a 73 33 33 3b
       0.007926935 -0.0023027475 0.0007400519 0.0027343899
000370 c5 d9 a1 bb c3 d6 80 3d 77 34 a9 3b 79 91 18 38
       -0.00493929 0.062909625 0.005163725 3.6375106e-05
000380 98 8e 13 3d 13 8e 11 1d 8e c6 3c b1 de 51 95 b6
       0.03602466 1.926404e-21 -2.7470466e-09 -4.4500766e-06
000390 17 82 22 ae fd 80 4d 31 21 f1 42 2d 80 1e 68 a2
       -3.695008e-11 2.9904748e-09 1.1081165e-11 -3.145801e-18
0003a0 bf 3d 94 87 e9 3a a8 17 74 3f 58 b2 6e 44 05 80
       -2.2304856e-34 1.0871617e-24 -1.2587282e-08 -4.83725e-40
0003b0 58 ae 8a 8e 1d cd 87 a0 e4 97 01 80 6e 28 0a 90
       -3.4187513e-30 -2.3005622e-19 -1.46324e-40 -2.7246847e-29
0003c0 39 1e a4 2f c7 a8 04 80 08 c2 c4 87 1f 22 03 80
       2.98529e-10 -4.27888e-40 -2.9604844e-34 -2.87747e-40
0003d0 09 a3 66 09 8d f6 04 80 1a ab e1 23 38 e5 05 00
       2.7761902e-33 -4.55788e-40 2.4467013e-17 5.41406e-40
0003e0 2a 3c a5 81 08 ec a0 31 a1 88 07 b9 17 34 78 3d
       -6.069776e-38 4.6834465e-09 -0.00012925502 0.06059655
0003f0 28 6b 76 3d 43 5d 9d bb 8b 3d fe bd ff 1a ae 39
       0.060160786 -0.0048023774 -0.12414082 0.0003320798

bias f4 [100]
000000 78 e0 70 97 77 17 11 b7 cd 74 d7 3d 68 47 32 3b
       -7.78315e-25 -8.648137e-06 0.10520325 0.0027203206
000010 6e 20 1f 39 56 8a ed ba eb 96 19 3c f2 b4 0a 3e
       0.00015175503 -0.0018122892 0.009374361 0.13545588
000020 37 68 a3 3d 93 8e 7e b9 71 c5 4e 3d 4b 59 d6 bc
       0.07978862 -0.0002427644 0.050481264 -0.026165625
000030 65 7d e5 b1 5b ad 02 b6 92 8b ed 3b 1b 2b 91 aa
       -6.679033e-09 -1.9472416e-06 0.007249304 -2.5787085e-13
000040 a6 0a 27 38 a1 00 ce 3c b6 a5 5d 3c 03 00 82 3d
       3.982582e-05 0.025146784 0.013528278 0.063476585
000050 ab 97 88 8b d6 8b 27 3e de 7a 48 af bd 7f 23 ae
       -5.26135e-32 0.16361937 -1.8233545e-10 -3.7175363e-11
000060 f1 65 82 a1 34 0e 15 b6 28 d7 1a 3a e7 05 b6 a2
       -8.836126e-19 -2.2210997e-06 0.00059066946 -4.933745e-18
000070 8e e5 e7 3d e2 0c cc b9 65 cb a0 b4 30 80 69 3c
       0.11323081 -0.0003891951 -2.995031e-07 0.014251754
000080 48 4e 28 38 ba 1e de bc cc 9e e8 3d f2 56 33 3d
       4.0127226e-05 -0.027114261 0.11358413 0.04378409
000090 6a 94 e7 3d 25 3e 10 3e c2 77 67 b6 cf 1d 58 3d
       0.113076046 0.14086206 -3.449139e-06 0.052762803
0000a0 e1 f7 51 b3 b0 72 76 3c d2 9f f9 3d 2e b5 fd 3d
       -4.888705e-08 0.015041992 0.121886864 0.12388073
0000b0 9a 94 61 ac 15 96 ac 3c 62 fc c3 3d 9d a7 8b 3a
       -3.2056914e-12 0.021067658 0.095696226 0.0010654811
0000c0 4e 11 a6 3d bf 08 1a af 7a 9b e6 3c 98 61 22 8b
       0.08108769 -1.4009326e-10 0.028150309 -3.1273486e-32
0000d0 11 6f 59 8f 28 25 61 3d fd 15 fb ba e7 5b d4 96
       -1.0720317e-29 0.054967076 -0.0019156333 -3.4308446e-25
0000e0 50 73 f3 39 4a 2e a0 3d 44 73 37 b7 40 04 1a b7
       0.00046434486 0.07821329 -1.0934487e-05 -9.180105e-06
0000f0 13 e1 97 b1 c9 d7 2f 3e 55 61 75 b8 d8 65 15 3c
       -4.4202664e-09 0.17172159 -5.85032e-05 0.00911852
000100 93 bf 96 3d 5a cd 16 3d 16 d8 9f 3c 83 88 a2 b9
       0.07360759 0.036816932 0.019512217 -0.00031000757
000110 bf 97 f3 3d 4e e3 00 8e 9a c0 97 a9 78 14 0b 87
       0.11894178 -1.5886661e-30 -6.739158e-14 -1.0463213e-34
000120 c2 8a 7f 39 78 e3 79 b4 e9 6a c5 bc 7e 3f 0b b7
       0.00024370386 -2.3272685e-07 -0.02409883 -8.299829e-06
000130 04 b6 08 3e 2d 39 31 bc 79 ee c1 90 e0 cd 3e 37
       0.13350683 -0.010816854 -7.64925e-29 1.13728165e-05
000140 2a 48 fc b9 a8 b2 50 b5 d3 61 89 b9 51 fa 02 8c
       -0.00048118952 -7.774602e-07 -0.0002620356 -1.0090163e-31
000150 fb 6c f3 3d bc d7 00 3e dd 2f 12 b7 e8 cd 04 38
       0.11886021 0.12582296 -8.713422e-06 3.1663018e-05
000160 61 e2 16 a0 18 c4 d6 b9 0e f9 08 94 3f 6c 80 3d
       -1.2780397e-19 -0.00040963362 -6.915363e-27 0.06270646
000170 df a7 d7 3d 38 70 e3 a0 dc a8 55 38 75 78 aa 3d
       0.10530066 -3.8529556e-19 5.094042e-05 0.083237566
000180 1d bf ec b5 2d 26 09 9a ed ce cd 3d 7a 7c ff b2
       -1.7638991e-06 -2.8361774e-23 0.100492336 -2.9742512e-08

weight f4 [300, 100]
000000 70 05 03 00 e6 f9 05 00 e0 08 10 16 ec 69 84 14
       2.77457e-40 5.48824e-40 1.1635028e-25 1.3370373e-26
000010 ed 9e 0f 10 05 7a 01 00 e6 0a 83 94 ca a5 bf 15
       2.832421e-29 1.35608e-40 -1.3231918e-26 7.7405855e-26
000020 96 a6 20 15 e9 37 06 00 8d 4a 88 15 d4 8e b2 92
       3.2443156e-26 5.7107e-40 5.504758e-26 -1.1268589e-27
000030 17 73 03 00 cb 3f 00 00 3b 7e 03 15 c2 7e 00 80
       3.16793e-40 2.2885e-41 2.6554818e-26 -4.5472e-41
000040 52 f3 09 8f 2b c8 79 15 47 b4 13 16 27 81 03 96
       -6.801483e-30 5.0443054e-26 1.1931451e-25 -1.0622849e-25
000050 8d 8f 06 00 95 19 13 17 f7 b1 07 80 e3 00 06 80
       6.02509e-40 4.753055e-25 -7.0669e-40 -5.51331e-40
000060 54 9a 01 00 02 ec 01 00 2c da 31 93 6f f7 03 00
       1.47198e-40 1.76499e-40 -2.2448108e-27 3.64269e-40
000070 5a 25 9b 15 97 43 01 80 ec 39 02 80 56 30 d5 94
       6.266293e-26 -1.16082e-40 -2.0445e-40 -2.1526569e-26
000080 e5 4c a0 13 41 fc 82 0c 1f db eb 15 74 04 45 16
       4.0465502e-27 2.0181491e-31 9.5261456e-26 1.5914938e-25
000090 ac db da 16 08 9f 14 15 e1 46 76 80 92 fe 3e 16
       3.5358432e-25 3.0013816e-26 -1.0862015e-38 1.5428406e-25
0000a0 50 ae 02 80 f8 2b 24 93 19 a3 e9 15 da 5b bb 16
       -2.46203e-40 -2.0721388e-27 9.4365273e-26 3.0269446e-25
0000b0 f0 81 a9 02 a6 c2 9c 14 47 14 b7 15 98 a0 8a 92
       2.4906899e-37 1.582875e-26 7.3945103e-26 -8.748614e-28
0000c0 50 fa c3 95 8f ca 01 80 b9 67 8f 15 ed bb 06 80
       -7.9154796e-26 -1.645e-40 5.7920886e-26 -6.18428e-40
0000d0 13 4f 03 80 fd 0d a1 16 5d 2a ac 83 f8 5d 01 00
       -3.03873e-40 2.601978e-25 -1.01189775e-36 1.25545e-40
0000e0 94 5c ff 92 7e fa 4d 15 99 91 05 80 57 6f 04 00
       -1.6115585e-27 4.1597024e-26 -5.11408e-40 4.07283e-40
0000f0 4f 59 02 80 15 93 4a 16 88 73 ef 8d 12 8f a7 14
       -2.15709e-40 1.6363841e-25 -1.4757325e-30 1.6919122e-26
000100 12 79 8c 15 2a e1 44 16 10 35 dd 14 74 a6 a0 14
       5.6736565e-26 1.5903803e-25 2.2336227e-26 1.6221526e-26
000110 e8 5d cf 16 d9 55 00 00 c4 e3 00 80 c9 66 00 80
       3.3501917e-25 3.0796e-41 -8.1707e-41 -3.6872e-41
000120 ea b4 ae 11 aa d5 9d 06 ad 9c 68 0b 20 88 5f 0f
       2.7563856e-28 5.937079e-35 4.4799444e-32 1.10209656e-29
000130 cc 7c 33 16 40 fe f5 90 81 dd 00 00 f6 52 b4 11
       1.4498884e-25 -9.7027195e-29 7.946e-41 2.8450121e-28
000140 7a 62 05 00 e3 9d 0b 00 a2 00 05 80 a2 72 03 00
       4.94504e-40 1.06683e-39 -4.59404e-40 3.16629e-40
000150 ba a0 e1 16 c1 e4 1b 16 20 2c 01 80 6a 63 b8 0f
       3.6452143e-25 1.2592982e-25 -1.07665e-40 1.8182094e-29
000160 40 fa 03 80 18 d3 bd 13 72 21 04 80 8a a0 b2 16
       -3.65279e-40 4.7918462e-27 -3.7934e-40 2.8858765e-25
000170 b7 0a f1 15 f1 c3 03 00 5b 38 2a 91 b4 48 26 16
       9.735603e-26 3.45797e-40 -1.3428001e-28 1.3432314e-25
000180 d0 7d ef 0c a4 91 06 80 ca b6 c4 16 71 b1 04 80
       3.6899501e-31 -6.03259e-40 3.1780864e-25 -4.30996e-40
000190 c8 21 90 08 ad c0 05 80 bc f3 a3 b0 c7 52 d0 30
       8.674627e-34 -5.28297e-40 -1.1929084e-09 1.5157519e-09
0001a0 a0 38 a0 25 67 25 42 10 c8 c1 b1 30 7d bf 88 32
       2.7793946e-16 3.8288568e-29 1.2933521e-09 1.5919563e-08
0001b0 00 9a 7d b2 5c 7d 00 80 45 36 d9 31 04 3c d2 a2
       -1.4761554e-08 -4.497e-41 6.321701e-09 -5.698416e-18
0001c0 a6 e3 de 11 15 92 1c 80 7a f1 01 31 5a 80 00 00
       3.5165723e-28 -2.623798e-39 1.8909234e-09 4.6044e-41
0001d0 7b 6d 4f ad e2 9b a3 b0 63 91 92 b1 0e 5a 8f b1
       -1.1790897e-11 -1.1904115e-09 -4.265688e-09 -4.172086e-09
0001e0 fc 6c 07 00 f9 bb 93 31 35 6f a4 05 ba 5b 05 19
       6.81945e-40 4.299633e-09 1.5463337e-35 6.894463e-24
0001f0 92 d7 3a 0c 80 a2 03 00 81 96 2a 31 45 73 06 00
       1.439379e-31 3.338e-40 2.4823807e-09 5.92364e-40
000200 de 25 86 32 02 15 42 a1 0e f0 04 80 06 80 1d 31
       1.5616873e-08 -6.575756e-19 -4.53457e-40 2.291928e-09
000210 46 64 88 2e 42 23 95 a1 57 af c6 b0 f7 40 19 b2
       6.202376e-11 -1.0105965e-18 -1.4456231e-09 -8.920543e-09
000220 05 26 6c b2 15 50 8f b2 0a d7 8a a7 68 08 11 b2
       -1.3745653e-08 -1.6683808e-08 -3.853584e-15 -8.442022e-09
000230 50 f2 01 00 48 93 4b b1 73 76 04 32 d0 81 70 32
       1.78761e-40 -2.9624108e-09 7.7103435e-09 1.3999355e-08
000240 93 f3 de 88 e6 b9 2a 32 cc 0b 23 b2 a8 ea 18 af
       -1.3418403e-33 9.937571e-09 -9.490531e-09 -1.3907686e-10
000250 0b ac a9 31 81 07 04 00 56 38 55 31 f7 ab 0a 00
       4.9381064e-09 3.70034e-40 3.1027603e-09 9.80044e-40
000260 cf 96 e0 01 d0 17 f0 31 13 25 0e ad 66 72 ad 00
       8.2501004e-38 6.9876265e-09 -8.079998e-12 1.5928579e-38
000270 35 d7 85 2f 2e b7 c3 31 42 fa 03 80 bb 1e 00 00
       2.4345473e-10 5.696072e-09 -3.65282e-40 1.1024e-41
000280 da 1a 01 80 fd 88 b7 31 36 f9 41 2c f0 b5 08 b1
       -1.01468e-40 5.3415747e-09 2.756529e-12 -1.9894024e-09
000290 09 a1 c6 31 0c 5a 09 32 f7 69 24 31 0e 2e ad b0
       5.780866e-09 7.994924e-09 2.3925375e-09 -1.2600496e-09
0002a0 49 07 a4 b1 b6 fc 00 80 4a 65 03 00 13 05 01 00
       -4.7738564e-09 -9.0656e-41 3.11842e-40 9.3656e-41
0002b0 f1 8b af 2e 0a 1f e9 a3 6b 49 21 21 c9 6b f9 2c
       7.982937e-11 -2.5275056e-17 5.464609e-19 7.088972e-12
0002c0 2d c1 50 b1 b0 5d 5f 25 44 23 03 80 20 16 19 2c
       -3.0377791e-09 1.9373909e-16 -2.88157e-40 2.175489e-12
0002d0 0c 8b 7a 8c 4c fa 01 00 43 cd 36 00 f4 40 a5 86
       -1.9301142e-31 1.81625e-40 5.032751e-39 -6.216154e-35
0002e0 f9 08 86 b2 e8 4a ad 31 c4 00 02 00 60 2c 6d ad
       -1.5603733e-08 5.0434785e-09 1.83946e-40 -1.34817435e-11
0002f0 3a 6d b6 8c fd 4f 05 30 37 23 05 00 26 f7 e0 b1
       -2.8107278e-31 4.849879e-10 4.7181e-40 -6.5473555e-09
000300 c4 87 2d b1 f8 9a a1 84 88 9a b8 2d 19 10 ae 31
       -2.5251987e-09 -3.7993234e-36 2.0987004e-11 5.0658966e-09
000310 70 63 ae 25 db 09 90 83 95 04 7c b2 10 26 be a3
       3.025157e-16 -8.465822e-37 -1.4669372e-08 -2.0615961e-17
000320 6d ab 04 00 59 d9 03 00 09 cc 38 95 cc 04 07 94
       4.28838e-40 3.53476e-40 -3.731946e-26 -6.816704e-27
000330 1b ea c0 10 1e 41 2f 01 0e 03 e1 93 2a ce ab 15
       7.6091343e-29 3.2189143e-38 -5.6800997e-27 6.939162e-26
000340 72 7f 50 15 06 c4 01 00 c8 73 10 94 34 92 e3 11
       4.2105802e-26 1.62155e-40 -7.292976e-27 3.590439e-28
000350 d1 45 cb 03 df b2 00 00 c9 c6 a1 93 64 67 00 00
       1.1947297e-36 6.4167e-41 -4.083813e-27 3.709e-41
000360 a1 27 92 8f 8f 32 88 94 06 b6 2e 95 72 ee c5 94
       -1.4411976e-29 -1.3752432e-26 -3.528261e-26 -1.9985967e-26
000370 c1 a7 01 80 e5 0f 96 15 55 7f 07 00 14 4b 76 02
       -1.52014e-40 6.0609595e-26 6.88527e-40 1.8094772e-37
000380 ca de 01 80 33 62 03 00 e2 b2 10 93 f4 7a 12 00
       -1.71757e-40 3.10734e-40 -1.8263551e-27 1.697146e-39
000390 62 f4 b0 15 5d b2 05 00 97 02 02 80 7b b1 85 94
       7.14714e-26 5.23162e-40 -1.846e-40 -1.3499572e-26
0003a0 e7 1e ca 12 cc d6 88 92 28 cf 90 15 47 6b 19 95
       1.275561e-27 -8.635758e-28 5.848797e-26 -3.098273e-26
0003b0 a6 ca 88 15 53 55 29 15 9d a6 a9 86 9c 85 e1 13
       5.5249685e-26 3.4196587e-26 -6.381555e-35 5.6929734e-27
0003c0 bd 2f 67 80 d3 d3 b4 93 a9 b8 f5 15 18 20 b0 15
       -9.476181e-39 -4.5647263e-27 9.9246054e-26 7.113647e-26
0003d0 2f ec a6 83 70 78 b4 92 72 09 ad 15 11 e6 40 92
       -9.810828e-37 -1.1389287e-27 6.9889046e-26 -6.0868096e-28
0003e0 96 8c e1 94 39 77 03 80 48 26 f3 12 5d fd 02 00
       -2.2774645e-26 -3.18276e-40 1.5344893e-27 2.7456e-40
0003f0 5c f3 19 00 26 17 1c 95 00 d5 47 09 4c fe 04 80
       2.383188e-39 -3.152221e-26 2.4053906e-33 -4.58567e-40

bias f4 [300]
000000 36 4b 0d 96 91 25 1b b7 bd ff e0 96 f2 b9 3c 3d
       -1.1413622e-25 -9.247467e-06 -3.6350545e-25 0.04607577
000010 86 0f 00 3c d2 4d 88 ab a2 98 5a 3d 5d 64 f9 9d
       0.007816201 -9.684981e-13 0.05336822 -6.6013524e-21
000020 54 53 8a ba 9f 2d 55 aa e3 7c b2 8b 2b ce 3b 3d
       -0.0010553398 -1.8934028e-13 -6.8751015e-32 0.045850914
000030 23 7e 86 aa cb 31 1f b2 5d 42 5a 99 15 c4 95 b6
       -2.3890707e-13 -9.26634e-09 -1.1283738e-23 -4.463373e-06
000040 ba a6 db 99 b8 f4 31 a1 df 1d b5 8e 21 bc a8 39
       -2.271141e-23 -6.0293815e-19 -4.464871e-30 0.00032183624
000050 7c 9c d0 3c 4e 97 93 95 1b 15 0c b1 5d d6 07 8b
       0.025465243 -5.9611544e-26 -2.0384678e-09 -2.6161323e-32
000060 ff 3c 8b 3c d7 95 1b 3b 84 4c 99 3c 68 2c 40 3b
       0.016996859 0.0023740435 0.018713243 0.0029323343
000070 d1 dd 68 b9 dd 43 21 3d 70 13 bd 3b fd 0d 0d 3b
       -0.00022207877 0.03937136 0.0057701394 0.002152323
000080 ac 69 a2 b1 04 b5 13 3d d6 71 60 b8 bd 6c 9b a2
       -4.726834e-09 0.0360613 -5.351178e-05 -4.2127965e-18
000090 f8 40 9d 9e 52 bf c0 3b ef f8 b4 3c 69 1b b6 35
       -1.6649892e-20 0.005882182 0.022091357 1.3568034e-06
0000a0 ae 7c f9 3c 4b ec 04 80 79 cf 58 3d 30 d5 ab b0
       0.03045496 -4.52108e-40 0.052932236 -1.2502479e-09
0000b0 e9 27 49 3d ed fc 0a bb 22 af 13 3b 02 f4 3d 3c
       0.049110327 -0.0021207884 0.0022534807 0.0115938205
0000c0 fe 10 10 3c 66 a9 cf a5 2e fa d4 b7 58 60 29 b8
       0.008793114 -3.6023565e-16 -2.5388868e-05 -4.0382467e-05
0000d0 8d e8 2a ab e1 7d ab 3c a9 94 eb 3b 90 78 86 8a
       -6.071886e-13 0.020934047 0.0071893525 -1.2949081e-32
0000e0 b8 7f 49 b2 7a 10 0f 3d bc a4 aa 3c 1f 55 55 a1
       -1.172878e-08 0.034927823 0.020830505 -7.2279864e-19
0000f0 76 b5 e0 ac b9 c3 00 bc 6c 34 48 3c ea 9c 78 3d
       -6.386609e-12 -0.007859164 0.01221953 0.06069652
000100 e9 5c 32 3c c4 fe d5 a1 7b 06 7a 3b 20 30 92 a8
       0.010886409 -1.4500877e-18 0.0038150835 -1.6230127e-14
000110 81 cc 4f af e1 74 a9 9a 0c b0 ea 3c 08 42 67 ac
       -1.8899195e-10 -7.008559e-23 0.028648399 -3.286373e-12
000120 48 ce 6c 9b 41 46 45 b1 5d c5 f4 96 e1 a2 32 9a
       -1.9588116e-22 -2.8707208e-09 -3.954488e-25 -3.694111e-23
000130 57 76 1d 3a 3b 62 90 3c 4f 3f 2d 9d 36 c0 46 3d
       0.0006006709 0.017624965 -2.292909e-21 0.04852315
000140 d2 99 c6 3b e5 3b d5 3c de b1 03 3c 46 68 69 9e
       0.0060608173 0.026029537 0.008038012 -1.23564805e-20
000150 26 1c 9c b7 b8 79 cc 3c de 38 a1 3c 71 60 76 a5
       -1.8609757e-05 0.024960384 0.019680437 -2.1369774e-16
000160 2f 3f ee 3c 83 bb 8c 3b f9 42 8a 9b 64 c4 6d a0
       0.029082863 0.004294814 -2.2873465e-22 -2.0139661e-19
000170 95 d0 59 9a 3d a3 fb b4 62 c0 e3 3c d1 43 81 92
       -4.504304e-23 -4.6871165e-07 0.027801696 -8.157763e-28
000180 88 0c ed 3b 27 39 13 9c d5 45 44 99 3f 01 49 95
       0.00723416 -4.871209e-22 -1.0147065e-23 -4.059261e-26
000190 b5 30 da 3b 77 7f 39 a0 b7 41 07 b8 0e d2 de 88
       0.0066586384 -1.5712284e-19 -3.224771e-05 -1.3410523e-33
0001a0 68 dd 44 3a 29 f5 ed 3c 7b 2e a9 ad 32 cb b3 a6
       0.0007509799 0.029047566 -1.9233717e-11 -1.2475696e-15
0001b0 5a 8b 2f 3d d8 32 df 3a 98 40 b4 8d 94 e6 f3 99
       0.042857505 0.0017028702 -1.1108907e-30 -2.5218741e-23
0001c0 06 3b c8 a5 8a a5 cd 86 24 cc e0 98 e0 2c c2 9a
       -3.4734465e-16 -7.735567e-35 -5.8108772e-24 -8.030902e-23
0001d0 91 32 f2 3c 0e e2 86 3c ee 0a 41 9e 0e 21 f2 3c
       0.029565128 0.016465213 -1.0219595e-20 0.029556777
0001e0 23 ec 8e a1 da 46 aa 3c 6c e8 91 af 40 2f 02 3d
       -9.684799e-19 0.020785738 -2.6540492e-10 0.031783342
0001f0 ac 00 2d 93 80 6a 28 33 77 c9 8e 8f d3 8a 85 9a
       -2.1836001e-27 3.921241e-08 -1.4079883e-29 -5.5231793e-23
000200 6f c9 99 92 24 4b 98 ba db f6 d3 b3 5f cb f6 a1
       -9.705315e-28 -0.0011619073 -9.870356e-08 -1.672344e-18
000210 bd 36 03 3d 1e 13 30 b0 ec 09 ee 0e 03 e1 f7 a9
       0.032034624 -6.4055594e-10 5.8681084e-30 -1.1008037e-13
000220 1e da b3 a9 b6 02 ba a7 d0 0e 36 94 61 1b 9b 3c
       -7.987034e-14 -5.162831e-15 -9.191573e-27 0.018933954
000230 5f 85 47 3d de 42 f1 b1 0e d6 88 a5 67 9d 97 b8
       0.048711177 -7.021625e-09 -2.3737288e-16 -7.2295596e-05
000240 09 d3 61 3a d3 99 62 3a c8 2f 90 b0 8b 7f 2c 93
       0.00086145155 0.00086441374 -1.0490959e-09 -2.1772336e-27
000250 1c fd 0e bc 0e 65 ac b6 5c b6 d5 b7 43 a3 e3 96
       -0.008727338 -5.1377638e-06 -2.5476496e-05 -3.677686e-25
000260 d6 66 a0 b0 68 09 46 3d b5 a8 18 3b 8d 75 9e b1
       -1.167076e-09 0.048348814 0.0023293917 -4.611769e-09
000270 81 ac be a5 d4 b6 84 a8 86 e8 85 38 5c ac 7a 33
       -3.307664e-16 -1.4734233e-14 6.385245e-05 5.836442e-08
000280 21 23 5c b4 f2 fb d5 3c 94 db 5c b6 0e f3 0f a1
       -2.0501876e-07 0.026121113 -3.2910366e-06 -4.8771965e-19
000290 c2 ea 1a 3d 09 fb da 99 75 77 16 b5 84 fb 8b b8
       0.03782154 -2.2642064e-23 -5.605319e-07 -6.674885e-05
0002a0 ca e5 d5 a7 bb e7 14 b2 e6 d7 67 97 4a 43 14 97
       -5.9368514e-15 -8.667423e-09 -7.491263e-25 -4.790631e-25
0002b0 12 de 7f a7 35 65 04 3d d6 6d 4e af 87 c8 0a a8
       -3.5508743e-15 0.03232308 -1.8774612e-10 -7.704021e-15
0002c0 b5 1d af a5 c3 18 95 ba 9f a6 03 b8 b6 59 15 b7
       -3.037779e-16 -0.0011375177 -3.1388012e-05 -8.9019795e-06
0002d0 62 9a 29 91 b1 f2 18 9b 34 6f ba a4 12 d5 a5 9c
       -1.3379322e-28 -1.2651563e-22 -8.085303e-17 -1.0973861e-21
0002e0 25 a3 07 3d 7b d2 4f 3d 62 7f 7d b8 bd 6e 2a 3c
       0.03311457 0.05073784 -6.0438535e-05 0.010402379
0002f0 9e 5c e0 3b bd 2f 80 a7 09 d3 06 b4 36 12 7d 81
       0.0068469783 -3.5578895e-15 -1.2556497e-07 -4.6481827e-38
000300 05 d9 27 aa 61 3b 36 3c ca 9d f8 0d 9b f2 fd 97
       -1.4907873e-13 0.0111225555 1.5322166e-30 -1.6410984e-24
000310 fa 45 c9 3c cd 84 c6 b8 ad 0c 43 a2 22 32 70 9d
       0.0245695 -9.466112e-05 -2.6434138e-18 -3.1789654e-21
000320 0a 44 b6 3b f8 0a 01 3d 18 6a 55 87 b1 ce 6a b5
       0.00556231 0.0315046 -1.6055517e-34 -8.747257e-07
000330 3c 26 03 3d 06 83 0e 3c a3 c1 94 3d fa 58 7b 3a
       0.032018885 0.008698231 0.07263496 0.00095881487
000340 2f db 99 3d 97 76 fb 3c 7c 14 4f 3d 66 f2 49 99
       0.07512509 0.030696196 0.050556645 -1.04404084e-23
000350 b6 f7 6b 0e a2 66 6f 3d 86 19 a2 ae 31 44 89 3d
       2.9085255e-30 0.058447488 -7.371441e-11 0.067024596
000360 6c a0 46 93 42 fb 70 3c b0 99 83 96 b6 40 39 3a
       -2.5070208e-27 0.014708342 -2.1261182e-25 0.00070668326
000370 07 9e 11 3d 12 77 81 3d 1f f9 bd a5 25 80 ef 99
       0.035551097 0.06321539 -3.2955085e-16 -2.4763778e-23
000380 9f 5f 6b a9 83 59 14 a5 0c 31 dd 38 cd a7 3c 3d
       -5.226342e-14 -1.2867281e-16 0.00010547237 0.046058465
000390 b7 cf c0 99 0e 9f 24 b7 aa f8 97 b4 8b 2b 8a a4
       -1.993623e-23 -9.812195e-06 -2.830687e-07 -5.9921725e-17
0003a0 43 b1 23 ab 95 53 9a b2 c8 1d 04 97 bd 1a 05 8d
       -5.8155233e-13 -1.7965968e-08 -4.268909e-25 -4.1015974e-31
0003b0 06 43 47 3b c6 4e 21 84 6a fe 1d b8 74 79 b4 b4
       0.003040494 -1.896163e-36 -3.766866e-05 -3.3615981e-07
0003c0 84 26 e0 9c 05 82 5e ac b2 ee a6 39 49 02 c2 3b
       -1.4833033e-21 -3.1620273e-12 0.0003183983 0.0059206826
0003d0 54 0e bf 3c 8b e9 59 3d 09 9c ed 3a bf e1 51 aa
       0.023322262 0.05320124 0.0018128167 -1.864125e-13
0003e0 f0 3f d4 3a ae 0f 7f ad 43 b8 0f 3c 89 59 2d 3b
       0.0016193371 -1.4498553e-11 0.008771959 0.0026451072
0003f0 09 6b ce 3b 9c 55 39 ad 7a 11 3c b0 6c e7 74 ab
       0.0062993807 -1.0535042e-11 -6.841884e-10 -8.7007376e-13
